actor_checkpoint.pth (torch_old, 548295 bytes, 10 tensors)

fc1.weight f4 [400, 33]
-0.049859267 -0.07184343 -0.14250688 -0.28842625 0.0862022 -0.012024866 -0.090360396 0.023945453
0.12732781 -0.04134565 0.005817374 0.012114643 -0.0052754823 0.2432342 -0.085090324 0.16213629
0.025536949 0.054649796 0.0068625608 0.037382603 0.017444137 0.0047703623 0.049329367 0.030099597
-0.04440843 0.0054395823 -0.1816176 0.049260367 0.007609079 0.019472037 -0.020790996 -0.013085712
-0.22957905 -0.08975984 -0.25244212 -0.12976003 0.031893577 0.17316595 -0.21120958 0.08240527
0.029762655 0.028722808 0.07283008 0.019496368 0.007552311 -0.0323828 0.22209 0.13420218
0.1350919 -0.016942464 -0.0042710183 0.020107172 -0.003152864 -0.006490244 0.06874983 0.0491435
0.046432596 0.0426642 -0.017603828 -0.1814111 -0.009299212 -0.056931358 0.03346545 -0.04481646
0.0037968159 0.4002919 0.055895608 0.0035842056 0.0025719632 0.084651284 0.17292675 -0.06359008
0.09645917 -0.12084938 0.061727885 0.21517213 -0.069549605 -0.038629208 -0.016153501 -0.10901428
-0.06297417 -0.11452544 -0.0742118 -0.0080544315 0.087126985 -0.023096962 0.03519915 -0.034322746
-0.0069575394 -0.08200743 -0.022961725 -0.13980234 0.013626727 0.022189422 0.17250803 0.037549835
0.026208954 0.025112797 0.62905 -0.0741174 -0.051418718 -0.10106273 0.18565392 -0.2936666
-0.32237616 -0.08762369 -0.10445253 0.12783974 -0.09950422 -0.10035441 -0.06447862 -0.016618567
-0.0035558068 0.19764097 -0.033403914 -0.28472716 -0.13931897 0.09537541 -0.08679067 -0.0038084441
-0.00704625 0.0014404234 -0.10929852 -0.05813644 0.2150746 -0.060415022 -0.012857581 -0.03267823
-0.035109997 0.04420483 -0.047419447 0.59145284 -0.049165327 -0.10495669 0.08026827 -0.100299686
0.18277122 0.07621282 0.046206262 -0.024837732 0.15043639 0.13163584 -0.035752125 -0.18326043
0.15859348 -0.21912861 -0.13776396 -0.12729436 0.066597655 0.05563455 0.50093085 -0.028184958
-0.02272605 0.03741778 -0.11571552 0.07025442 0.02850327 0.0036268341 -0.10000741 0.021537056
-0.0922553 0.03952271 0.021086918 0.04092199 -0.0012721072 0.007165237 0.2702761 0.13861442
-0.17192832 0.074428745 -0.03165459 0.03352392 0.08281961 -0.12874193 -0.16523594 0.07797357
0.09907879 0.035398647 0.04506224 0.1421498 -0.12501831 0.11646822 0.0027653154 0.034494445
0.049141448 0.031205893 0.10286566 0.114282586 0.059352383 -0.007021922 -0.1452411 0.09570978
0.02306404 -0.134166 0.030082498 0.045592796 -0.04919249 0.43939912 0.05111391 0.4778809
0.19812663 0.06955757 0.08502379 -0.13684356 0.23902412 0.07667506 0.057322327 0.11455182
0.042939164 0.040588327 0.023033682 -0.08492233 -0.24348424 0.00727479 -0.07594747 -0.00037367237
-0.022615876 0.008982785 -0.015422274 0.00031910682 0.040681075 -0.06616403 -0.036041625 0.012726887
0.027952647 -0.00496753 -0.1227448 -0.024000555 -0.0074204686 0.036277298 -0.5050902 -0.045350816
-0.38955995 -0.031649414 0.27398378 0.27338052 -0.14840879 -0.11730728 0.08040663 -0.029637994
0.12911518 -0.006992571 0.091110244 0.09572129 0.03367459 0.36427858 -0.02718979 -0.051318433
-0.012142204 0.2216093 0.15018485 -0.16558051 -0.11448641 -0.07333106 0.06936679 0.029675549
00000000: 3b39 4cbd a622 93bd 53ed 11be 9bac 93be
00000010: c78a b03d f203 45bc df0e b9bd 4129 c43c
00000020: 3962 023e 0e5a 29bd ac9f be3b 7f7c 463c
00000030: f4dd acbb 6312 793e d643 aebd 0e07 263e
00000040: dd32 d13c 77d8 5f3d 55df e03b 801e 193d
00000050: 02e7 8e3c b350 9c3b 970d 4a3d 6e93 f63c
00000060: 9de5 35bd 863e b23b f7f9 39be 3dc5 493d
00000070: 9555 f93b d283 9f3c e151 aabc 7465 56bc
00000080: c516 6bbe 02d4 b7bd 1840 81be d0df 04be
00000090: d7a2 023d 6a52 313e 5347 58be 18c4 a83d
000000a0: d0d0 f33c 184c eb3c f027 953d d9b6 9f3c
000000b0: 6079 f73b d4a3 04bd 906b 633e 4c6c 093e
000000c0: 8855 0a3e ecca 8abc e6f3 8bbb ccb7 a43c
000000d0: 48a0 4ebb 1dac d4bb b6cc 8c3d b24a 493d
000000e0: 1b30 3e3d a8c0 2e3d e735 90bc d5c3 39be
000000f0: b95b 18bc db30 69bd 1113 093d 7791 37bd
00000100: 00d4 783b 0ff3 cc3e cbf2 643d fee4 6a3b
00000110: 628e 283b a75d ad3d b613 313e 843b 82bd
00000120: 638c c53d e17f f7bd 61d6 7c3d 1556 5c3e
00000130: 0670 8ebd a939 1ebd 5954 84bc e142 dfbd
00000140: 9af8 80bd 508c eabd 5bfc 97bd bcf6 03bc
00000150: a26f b23d d735 bdbc fc2c 103d 0296 0cbd
00000160: 12fc e3bb 83f3 a7bd 3a1a bcbc 5828 0fbe
00000170: a342 5f3c 97c6 b53c f2a5 303e dbcd 193d
00000180: 29b4 d63c 5ab9 cd3c 6c09 213f ddca 97bd
00000190: 6f9c 52bd faf9 cebd 101c 3e3e 785b 96be
000001a0: 7d0e a5be 0d74 b3bd 35eb d5bd 6ce8 023e
000001b0: dec8 cbbd 9d86 cdbd 5e0d 84bd a923 88bc
000001c0: 8a08 69bb 6562 4a3e 8bd2 08bd c2c7 91be
000001d0: a2a9 0ebe 2f54 c33d 4fbf b1bd 1797 79bb
000001e0: 3be4 e6bb 97cc bc3a e7d7 dfbd 7a20 6ebd
000001f0: 843c 5c3e be75 77bd 9aa8 52bc 9cd9 05bd
00000200: 80cf 0fbd 2010 353d e53a 42bd 7469 173f
00000210: 9561 49bd 88f3 d6bd b163 a43d ec69 cdbd
00000220: 6128 3b3e 7815 9c3d c742 3d3d 8078 cbbc
00000230: ff0b 1a3e 8ccb 063e d270 12bd 9fa8 3bbe
00000240: 5466 223e 4063 60be ff11 0dbe 7459 02be
00000250: 5a64 883d 0ee1 633d 013d 003f 24e4 e6bc
00000260: fb2b babc 6343 193d 42fc ecbd 8de1 8f3d
00000270: b17f e93c 2eb0 6d3b afd0 ccbd 7b6e b03c
00000280: 59f0 bcbd 91e2 213d 79be ac3c d19d 273d
00000290: d6bc a6ba 5dca ea3b a161 8a3e f0f0 0d3e
000002a0: fa0d 30be 196e 983d 3ea8 01bd 6150 093d
000002b0: 549d a93d edd4 03be 9c33 29be 9bb0 9f3d
000002c0: d2e9 ca3d 2cfe 103d 2f93 383d b88f 113e
000002d0: cd04 00be e486 ee3d 4b3a 353b 0c4a 0d3d
000002e0: 8b48 493d 80a3 ff3c 3bab d23d fd0c ea3d
000002f0: 7c1b 733d 2718 e6bb 15ba 14be 7d03 c43d
00000300: ccf0 bc3c d062 09be 926f f63c 83bf 3a3d
00000310: 107e 49bd ecf8 e03e d25c 513d ceac f43e
00000320: b5e1 4a3e 3374 8e3d f420 ae3d b820 0cbe
00000330: bdc2 743e d007 9d3d d1ca 6a3d 259a ea3d
00000340: fae0 2f3d f23f 263d 22b1 bc3c c2eb adbd
00000350: ef53 79be 5d61 ee3b 598a 9bbd 75e9 c3b9
00000360: ee44 b9bc 882c 133c b5ad 7cbc cb4d a739
00000370: 33a1 263d 0281 87bd 62a0 13bd 6f84 503c
00000380: f3fc e43c a9c6 a2bb a061 fbbd d09c c4bc
00000390: 6727 f3bb 8197 143d 974d 01bf c7c1 39bd
000003a0: 6774 c7be d1a2 01bd 9a47 8c3e 88f8 8b3e
000003b0: 79f8 17be cd3e f0bd 3bac a43d 61cb f2bc
000003c0: c536 043e f021 e5bb 0298 ba3d 8609 c43d
000003d0: 5eee 093d b982 ba3e 1fbd debc 4733 52bd
000003e0: 18f0 46bc 8ced 623e 0fca 193e f08d 29be
000003f0: da77 eabd 982e 96bd 2d10 8e3d 231a f33c

fc1.bias f4 [400]
0.13076513 -0.05491708 -0.16720603 0.00028328292 -0.14198704 0.09578014 0.042908825 0.123002104
-0.0155797005 -0.12621672 0.13988258 -0.125351 0.1091206 0.024120156 0.05973971 -0.13216564
-0.14357962 -0.084353946 -0.11527265 -0.15014681 -0.04828684 0.16621615 0.13131413 0.15548635
0.045704115 -0.13031971 0.11202709 0.17059563 -0.11037068 -0.0028293305 0.038425658 0.09804436
0.01227262 -0.17319149 -0.020495702 -0.11868333 0.09553618 0.12290398 0.015583008 -0.1461961
-0.057012856 -0.062239002 0.08078429 0.106585145 0.11084144 -0.05605202 0.06964812 -0.043618515
0.013627307 0.0023272326 -0.13950852 0.042980127 0.0048346627 -0.022844275 -0.1709282 -0.11976926
0.15185648 -0.1687653 -0.07578929 -0.07880711 0.10770022 -0.036088083 -0.14163002 0.1310853
0.15492785 0.02752398 -0.14076199 0.096729994 0.07703685 0.024696961 -0.017562414 0.032687586
-0.1338772 0.1287948 -0.005381752 -0.16031033 0.14173965 -0.064500876 0.014522417 0.07775195
0.038898993 0.13766582 -0.15964013 0.047641028 0.00041803543 -0.0077095376 -0.10376448 -0.113649786
0.061588373 0.01302278 0.005621883 0.100812286 0.025357326 0.012466916 0.1126329 -0.0009930539
0.16165833 -0.14291373 0.07967204 0.044153493 0.017561888 -0.051748775 -0.03393653 0.052044515
0.014403065 -0.1407692 -0.15299742 -0.08707042 -0.17038885 -0.058976848 0.045588903 -0.10192428
0.028126493 0.16427037 -0.08361998 0.15884145 -0.008606225 -0.16977006 -0.045670934 0.031124473
0.1369247 -0.05652715 -0.122281335 0.15183982 0.030138567 -0.048536714 -0.07897265 0.07297339
0.14589876 -0.01090723 0.032923244 0.040486764 -0.024710435 0.088185385 0.16437677 0.082618825
0.14091395 0.05142579 -0.032802667 0.050622165 -0.09930998 -0.05583162 0.03270113 0.055346627
-0.13747914 0.043613724 0.098726965 -0.13816479 0.065120414 -0.048980698 0.115756705 0.16869935
0.08782778 -0.13520275 0.060429223 -0.08630428 0.1258976 0.058807053 0.07642317 -0.12947123
-0.17114009 -0.109691076 0.16112512 0.08159998 0.046114437 -0.1393072 -0.0519446 0.007200963
-0.026329009 0.15930568 -0.16815989 -0.031095317 0.116729796 0.11242266 -0.1323463 0.0802138
-0.015049497 -0.1116056 -0.015331343 -0.13103111 -0.05248227 0.17383519 -0.14593053 -0.1399921
0.09999871 0.10314551 -0.111758575 -0.04547277 -0.0010947663 -0.14152014 0.011525852 -0.054892547
-0.054427516 0.06045987 -0.08601448 0.015061743 0.15785465 0.13122323 0.117156394 0.14621148
-0.06497236 0.15749499 -0.16194196 0.16481367 0.17286292 0.08952894 0.009262822 0.045342043
-0.08701623 -0.10542198 -0.11297928 0.09912545 -0.13847053 0.015473543 0.059976958 -0.12935725
-0.12377567 0.0022162881 -0.147246 0.022625249 -0.12196309 -0.11315849 -0.077791855 0.041168086
-0.051241197 -0.15697786 -0.07767376 -0.05240113 0.13843651 0.13096778 0.012643561 0.06827858
-0.17198251 -0.013670209 0.087196976 0.06359911 -0.08172598 0.114278585 0.063766666 -0.11024107
0.043786094 -0.13826664 0.10949271 0.11813937 -0.0035157443 0.0677734 -0.09682024 -0.0859568
-0.032960176 -0.11973357 -0.03052583 -0.0009336278 -0.07831883 0.11077657 0.056497127 0.0955536
00000000: 4be7 053e bbf0 60bd 0f38 2bbe 9785 9439
00000010: 0d65 11be 6128 c43d 2ac1 2f3d 87e8 fb3d
00000020: 0042 7fbc f53e 01be 613d 0f3e 035c 00be
00000030: 9f7a df3d a297 c53c a0b1 743d 6e56 07be
00000040: 8906 13be c3c1 acbd 1114 ecbd 16c0 19be
00000050: 6cc8 45bd 9134 2a3e 3677 063e d037 1f3e
00000060: 3d34 3b3d 8872 05be 756e e53d 9fb0 2e3e
00000070: 060a e2bd 4a6c 39bb 3964 1d3d 7bcb c83d
00000080: 1913 493c 1c59 31be 9ae6 a7bc 3f10 f3bd
00000090: 79a8 c33d 15b5 fb3d df4f 7f3c 6eb4 15be
000000a0: 5086 69bd 53ee 7ebd 3c72 a53d 5049 da3d
000000b0: d600 e33d ce96 65bd aca3 8e3d 54a9 32bd
000000c0: 1145 5f3c 7c84 183b 52db 0ebe ee0b 303d
000000d0: 176c 9e3b eb23 bbbc cd07 2fbe 9649 f5bd
000000e0: 4480 1b3e d0d0 2cbe 6a37 9bbd 9f65 a1bd
000000f0: ef91 dc3d 19d1 13bd 7607 11be 3a3b 063e
00000100: 68a5 1e3e f879 e13c e923 10be 601a c63d
00000110: 7fc5 9d3d 4851 ca3c 0ddf 8fbc 6be3 053d
00000120: 1b17 09be c9e2 033e 6859 b0bb 6428 24be
00000130: 3324 113e 0919 84bd 6fef 6d3c 6a3c 9f3d
00000140: 8d54 1f3d 45f8 0c3e b478 23be 3d23 433d
00000150: c42b db39 4aa0 fcbb 7982 d4bd 38c1 e8bd
00000160: 1744 7c3d 805d 553c c637 b83b ac76 ce3d
00000170: 2bba cf3c 0942 4c3c 14ac e63d 5c29 82ba
00000180: c389 253e fa57 12be 182b a33d 4bda 343d
00000190: f3dd 8f3c 86f6 53bd 0801 0bbd a12c 553d
000001a0: d5fa 6b3c cd25 10be 5bab 1cbe fa51 b2bd
000001b0: 6a7a 2ebe b591 71bd 6ebb 3a3d adbd d0bd
000001c0: 8869 e63c 7e36 283e f440 abbd 55a7 223e
000001d0: 2001 0dbc 34d8 2dbe 7211 3bbd c0f8 fe3c
000001e0: fd35 0c3e 0389 67bd a36e fabd e67b 1b3e
000001f0: 28e5 f63c 6fce 46bd 6abc a1bd 1373 953d
00000200: 7c66 153e 3db4 32bc 86da 063d 73d5 253d
00000210: 8a6d cabc 8a9a b43d 6252 283e 0f34 a93d
00000220: bf4b 103e d9a3 523d 175c 06bd 3059 4f3d
00000230: 0863 cbbd b2af 64bd 9ff1 053d 25b3 623d
00000240: 55c7 0cbe 4ea4 323d 5d31 ca3d 127b 0dbe
00000250: da5d 853d fc9f 48bd da11 ed3d 86bf 2c3e
00000260: 0ddf b33d 9772 0abe a284 773d 4cc0 b0bd
00000270: 4deb 003e aadf 703d c083 9c3d 1b94 04be
00000280: 593f 2fbe b7a5 e0bd fcfd 243e e41d a73d
00000290: 7ee2 3c3d 8ca6 0ebe dcc3 54bd 0ef6 eb3b
000002a0: efaf d7bc 0721 233e 1b32 2cbe 9bbb febc
000002b0: 0810 ef3d da3d e63d ca85 07be 2247 a43d
000002c0: 2a92 76bc 7a91 e4bd 5030 7bbc 052d 06be
000002d0: a6f7 56bd da01 323e d06e 15be 175a 0fbe
000002e0: 20cc cc3d f43d d33d aee1 e4bd a841 3abd
000002f0: 437e 8fba a8ea 10be edd6 3c3c 02d7 60bd
00000300: 63ef 5ebd c5a4 773d 5c28 b0bd 87c5 763c
00000310: a6a4 213e 625f 063e b1ef ef3d 76b8 153e
00000320: 3b10 85bd 5e46 213e 1dd4 25be eac4 283e
00000330: fa02 313e f35a b73d 17c3 173c 94b8 393d
00000340: 9135 b2bd 7be7 d7bd ae61 e7bd 4902 cb3d
00000350: 38cb 0dbe be84 7d3c 66aa 753d 3a76 04be
00000360: 197e fdbd 253f 113b a8c7 16be 9658 b93c
00000370: c9c7 f9bd a3bf e7bd 5651 9fbd de9f 283d
00000380: 4ae2 51bd cebe 20be 6c13 9fbd 91a2 56bd
00000390: 4dc2 0d3e 6b1c 063e f026 4f3c a4d5 8b3d
000003a0: 2f1c 30be 03f9 5fbc 5494 b23d 4040 823d
000003b0: f35f a7bd e40a ea3d 1998 823d 12c6 e1bd
000003c0: 0c59 333d c595 0dbe b73d e03d 0ef3 f13d
000003d0: 6768 66bb c8cc 8a3d b149 c6bd 1e0a b0bd
000003e0: 4001 07bd e036 f5bd 4e11 fabc b3be 74ba
000003f0: 9f65 a0bd d4de e23d 8869 673d 9bb1 c33d

batch_norm.weight f4 [400]
0.919453 0.9337842 0.97490114 0.8752245 0.6453414 0.74415 1.112005 0.68539006
0.7797447 0.7730933 0.45906025 0.92261094 1.0074576 0.89253235 0.99963385 0.5787006
0.6338416 0.920285 0.5655647 1.060526 0.68031514 0.6285819 1.0614086 0.63304436
1.3446506 0.57694304 0.64033186 0.6591582 0.9147944 0.83321846 0.53351426 0.7610152
0.7102907 1.0503274 0.82699424 0.75722337 0.88943624 0.55054283 0.816439 0.6748597
0.583177 0.76089644 0.56145483 0.6098052 0.66924626 0.33578342 0.5824107 0.69834214
0.81511664 0.5792203 0.78265965 0.56986564 0.6514155 0.615768 0.6777675 1.0032766
0.67842454 0.6279713 0.761637 1.0200701 0.45759243 0.6817179 1.1878966 0.5531799
0.7516611 1.0074313 0.41542396 0.7992547 0.44680807 0.87541395 0.65534735 1.1108589
1.0102521 1.1150986 0.7385702 0.6731546 1.102073 0.89718443 0.62297434 0.5865451
0.619396 0.8624426 0.58558017 0.7337785 0.49109542 0.53393906 0.799872 0.8747177
0.74743134 1.0784501 0.7502702 0.9090791 0.77014685 0.75747615 0.00026237694 0.8041507
0.61255145 0.42238802 0.7354509 1.0351804 0.8555438 0.76634216 0.7219883 0.5374855
1.1220769 0.56773025 0.47176462 0.9593058 1.4391608 0.8089814 0.58321255 0.8626524
0.7847335 0.75804675 0.8011001 0.8881581 0.4806571 0.564918 1.4393584 0.80897856
0.4786382 1.2869537 0.9228443 0.48091936 0.6862112 1.1987944 0.9192003 1.11103
0.86342293 0.86267054 0.6778561 0.6596575 0.92705023 0.4503403 0.6707854 0.743445
0.95335144 0.78785 0.6408162 1.0172585 0.8004313 0.8879091 0.4762756 0.970974
0.6200668 0.8077731 0.7234734 0.60191965 1.8140024 0.7265637 1.3457797 0.9338286
0.8587266 1.1305246 0.9776841 0.6239713 0.6729181 0.87343806 0.83906704 0.78560305
1.0292354 0.7162975 0.6672436 0.6231521 1.4124243 0.69678473 0.2658957 0.5605996
0.6952632 0.86940175 1.1421947 1.0042635 0.7494168 1.0537934 0.7787899 0.8591711
0.7805147 0.99178827 0.7721272 0.8577838 0.75808936 0.67113966 0.888585 0.81303716
0.53439564 1.2089318 0.9402223 0.74277246 1.2675546 0.9693588 0.66098547 0.8557312
0.87760776 0.57534456 0.75899726 0.5559573 0.95465446 0.8212862 1.1630647 0.5664338
0.8954131 0.75366443 0.5430454 1.0384243 0.719775 0.63244516 1.4770488 0.4204045
0.73029715 0.714418 0.8918841 1.174575 1.3723664 0.7708758 0.6143969 0.6635388
0.90525067 0.5833475 0.24426967 0.9977456 0.6093198 0.5933943 0.6677747 0.63936317
1.0697592 0.6772341 1.0554897 1.0581545 0.6834572 0.81607914 9.0826215e-05 0.9438018
0.48292476 0.9903666 1.0011514 0.5058553 0.9882749 0.76577556 0.78652304 0.4325933
0.5997334 0.73209447 0.6069425 0.8153503 0.6752708 0.9690105 0.93042946 0.7261664
0.8721126 0.7762177 1.0991564 0.7184221 0.66183233 1.2677735 1.4777772 0.9261306
00000000: 4661 6b3f 7b0c 6f3f 1f93 793f b60e 603f
00000010: 1835 253f 9d80 3e3f 2e56 8e3f b975 2f3f
00000020: 599d 473f 71e9 453f f209 eb3e 3b30 6c3f
00000030: 5ff4 803f 007d 643f 01e8 7f3f b925 143f
00000040: 7143 223f cc97 6b3f d9c8 103f 51bf 873f
00000050: 2229 2e3f beea 203f 3ddc 873f 320f 223f
00000060: 831d ac3f 8ab2 133f caec 233f 97be 283f
00000070: f72f 6a3f ce4d 553f 6494 083f e4d1 423f
00000080: 9cd5 353f 2171 863f e5b5 533f 64d9 413f
00000090: 18b2 633f 60f0 0c3f 2502 513f 9bc3 2c3f
000000a0: 164b 153f 1cca 423f 81bb 0f3f 321c 1c3f
000000b0: b953 2b3f ceeb ab3e de18 153f 8dc6 323f
000000c0: 7cab 503f c847 143f 625c 483f b7e2 113f
000000d0: 2bc3 263f f9a2 1d3f 2c82 2d3f 5e6b 803f
000000e0: 3bad 2d3f bac2 203f a4fa 423f a891 823f
000000f0: 8e49 ea3e 1085 2e3f ff0c 983f 339d 0d3f
00000100: dd6c 403f 82f3 803f 73b2 d43e f59b 4c3f
00000110: 07c4 e43e 211b 603f d8c4 273f a030 8e3f
00000120: f14f 813f 8dbb 8e3f f012 3d3f dc53 2c3f
00000130: ba10 8d3f e1ad 653f 3f7b 1f3f d227 163f
00000140: bc90 1e3f 0ac9 5c3f 95e8 153f e8d8 3b3f
00000150: dc70 fb3e 3bb0 083f 69c4 4c3f 80ed 5f3f
00000160: a957 3f3f a70a 8a3f b511 403f 68b9 683f
00000170: 5828 453f f5e9 413f a38f 8939 d2dc 4d3f
00000180: 2cd0 1c3f 3e43 d83e 8346 3c3f cb80 843f
00000190: eb04 5b3f 002f 443f 3ad4 383f a698 093f
000001a0: 37a0 8f3f c556 113f 228b f13e 1195 753f
000001b0: 6c36 b83f 6819 4f3f 6b4d 153f cad6 5c3f
000001c0: 4be4 483f 5a0f 423f e514 4d3f 545e 633f
000001d0: b018 f63e 779e 103f e53c b83f 3819 4f3f
000001e0: 1110 f53e e6ba a43f 863f 6c3f 103b f63e
000001f0: 8aab 2f3f 1872 993f b650 6b3f 3b36 8e3f
00000200: 4909 5d3f fad7 5c3f fa87 2d3f 50df 283f
00000210: 2a53 6d3f 0193 e63e 98b8 2b3f 6952 3e3f
00000220: d70e 743f 8ab0 493f 880c 243f 8735 823f
00000230: 11e9 4c3f 034e 633f 65da f33e c191 783f
00000240: b3bc 1e3f 38ca 4e3f 8e35 393f 6817 1a3f
00000250: 3b31 e83f 1400 3a3f 8242 ac3f 640f 6f3f
00000260: 82d5 5b3f 08b5 903f 8149 7a3f 95bc 1f3f
00000270: 5c44 2c3f a399 5f3f 19cd 563f 481d 493f
00000280: fcbd 833f 465f 373f 7ad0 2a3f e586 1f3f
00000290: 52ca b43f 7c60 323f 7b23 883e 7583 0f3f
000002a0: c5fc 313f 1d91 5e3f 7033 923f b58b 803f
000002b0: c8d9 3f3f b4e2 863f c65e 473f a3f2 5b3f
000002c0: d0cf 473f d6e5 7d3f 21aa 453f b897 5b3f
000002d0: 2512 423f cfcf 2b3f 4e7a 633f 3423 503f
000002e0: 27ce 083f 47be 9a3f 69b2 703f 5626 3e3f
000002f0: 3b3f a23f e627 783f 5836 293f 3311 5b3f
00000300: e7aa 603f c849 133f a54d 423f 3853 0e3f
00000310: 3c64 743f d03f 523f 4edf 943f ce01 113f
00000320: cb39 653f 27f0 403f 0605 0b3f 16eb 843f
00000330: 2d43 383f ede7 213f ef0f bd3f 423f d73e
00000340: c1f4 3a3f 19e4 363f 8452 643f 7958 963f
00000350: b4a9 af3f 1e58 453f 1e49 1d3f aedd 293f
00000360: 82be 673f 4356 153f d421 7a3e 416c 7f3f
00000370: 62fc 1b3f b0e8 173f 48f3 2a3f 4ead 233f
00000380: dfed 883f 375f 2d3f 491a 873f 9b71 873f
00000390: 0df7 2e3f 90ea 503f f479 be38 ff9c 713f
000003a0: ea41 f73e aa88 7d3f bb25 803f bc7f 013f
000003b0: 95ff 7c3f de09 443f 9359 493f de7c dd3e
000003c0: 2188 193f 8b6a 3b3f 9560 1b3f ccba 503f
000003d0: 8cde 2c3f 1211 783f a030 6e3f 0be6 393f
000003e0: c542 5f3f 34b6 463f 28b1 8c3f 83ea 373f
000003f0: d86d 293f 6746 a23f ce27 bd3f e516 6d3f

batch_norm.bias f4 [400]
-0.60567987 0.07535835 -0.7573387 -0.73107356 -0.45841417 -0.6001457 -0.12606645 0.12228548
-0.872206 -0.39959472 -0.049160123 -0.6781697 -0.8969305 -0.30572602 0.146423 -0.08768584
-0.366743 -0.46216777 -0.35623136 -0.6611214 -0.37312868 -0.34411168 -0.43843755 -0.60436743
-0.59049153 -0.43540025 -0.2234488 -0.32926092 -0.568115 -0.33183056 -0.12821126 -0.35393897
-0.64024544 -0.34469777 -0.7585469 -0.5347564 -0.47423717 0.016185759 -0.6061555 -0.5311875
-0.4547964 -0.3697133 -0.5189918 -0.082302004 -0.4772159 -0.04286579 -0.28187078 -0.31008166
0.02251217 -0.24382143 -0.55236214 0.3155779 -0.36775205 0.15176551 0.29218936 -0.22178216
-0.3319774 -0.4770088 -0.5194678 -0.23560825 -0.34790275 -0.35893503 -0.39145812 -0.31263006
0.009206246 -0.36063322 -0.20266882 -0.3262928 -0.35126787 0.07626051 -0.5090912 -0.43258888
-0.5639559 -0.12739538 -0.52177227 -0.33971018 -0.575713 0.20175783 -0.026839409 -0.46260512
-0.007533936 -0.5722894 -0.4939888 -0.68316096 -0.60687304 -0.2061311 -0.6085034 -0.4167685
-0.43152303 -0.56756973 -0.17044841 -0.13103923 0.08274366 -0.67874223 -0.0029606938 -0.38112998
-0.3873316 -0.22407538 -0.011466953 -0.737601 -0.48834097 0.41409683 -0.31484637 -0.29659534
-0.18089642 -0.6004565 -0.45650107 -0.67412376 0.16344325 -0.3143165 -0.039910242 -0.16713256
-0.6517705 -0.52060413 0.43727723 -0.36083862 0.11232789 -0.12908727 -0.017963927 -0.47912908
-0.2755867 0.23904477 -0.69523275 0.09330793 0.053264007 -0.39577368 -0.5352601 -0.31636634
-0.6302925 -0.36885825 -0.54678875 -0.44966337 -0.6629246 0.19278221 -0.20073545 -0.4172302
-0.61754715 -0.14919363 -0.46534714 0.18674396 0.14593321 -0.42364275 0.09845368 -0.48069298
-0.6113318 -0.39498737 -0.54303026 -0.4738178 -0.33360228 -0.36304837 -0.4013235 -0.31105793
-0.2927209 -0.6350834 -0.67796516 -0.39258474 -0.30885834 -0.09091661 -0.26305032 -0.4141247
-0.72880286 -0.22116552 -0.52171284 -0.3240353 -0.07592283 -0.108836554 0.21943472 -0.2533171
-0.4254753 0.08418887 -0.052046597 -0.115331635 0.059936516 -0.5470154 -0.435719 -0.82478565
0.040472966 -0.6629042 -0.24308445 -0.4333228 -0.71876156 -0.333645 0.08939792 -0.090800874
-0.33982247 -0.43187758 -0.51246184 -0.40452185 -0.44933525 -0.07461625 -0.27581298 -0.29245067
-0.521599 -0.31944814 -0.58718985 -0.55537695 -0.12294918 -0.6039885 -0.72462994 -0.24959898
-0.578916 -0.50502706 -0.10012697 -0.14885987 0.008901921 -0.13230903 -0.39113703 -0.2087771
-0.13521022 -0.29451743 -0.6007881 0.24227539 -0.7571848 -0.16562049 -0.21527451 -0.12970705
-0.76296395 -0.4611938 0.09072226 -0.34993672 -0.430589 -0.35845807 -0.16367528 -0.22344913
-0.7472385 -0.52339965 -0.18588544 -0.58826876 -0.4996155 -0.40253004 -0.0028328174 -0.39705357
0.06724694 -0.716565 -0.6016184 0.21272112 -0.522776 -0.25581178 -0.46499866 -0.08770751
-0.29490143 -0.39265636 -0.41144103 -0.44317728 -0.5563197 -0.50098306 -0.43776906 -0.3193235
-0.47355163 -0.105907224 -0.7287504 -0.49173608 -0.25359246 -0.4871768 0.0650087 -0.59765226
00000000: d60d 1bbf 7b55 9a3d f3e0 41bf a327 3bbf
00000010: 43b5 eabe 26a3 19bf 9017 01be cf70 fa3d
00000020: e448 5fbf ae97 ccbe 205c 49bd 889c 2dbf
00000030: 3d9d 65bf 1f88 9cbe e9ef 153e a294 b3bd
00000040: bdc5 bbbe 41a1 ecbe f563 b6be 413f 29bf
00000050: b90a bfbe 682f b0be e37a e0be d3b7 1abf
00000060: 742a 17bf c8ec debe c3cf 64be e394 a8be
00000070: fc6f 11bf b2e5 a9be d049 03be 7d37 b5be
00000080: 20e7 23bf 3a7c b0be 2130 42bf cce5 08bf
00000090: 37cf f2be ff97 843c 022d 1bbf e7fb 07bf
000000a0: 13db e8be 104b bdbe a6dc 04bf f48d a8bd
000000b0: a455 f4be 0a94 2fbd 5e51 90be 06c3 9ebe
000000c0: 716b b83c 53ac 79be 9b67 0dbf 6d93 a13e
000000d0: ff49 bcbe 6b68 1b3e d899 953e dd1a 63be
000000e0: f1f8 a9be 7f3a f4be d7fb 04bf 4a43 71be
000000f0: 4f20 b2be 55c6 b7be 336d c8be 0c11 a0be
00000100: cbd5 163c eba4 b8be 6a88 4fbe da0f a7be
00000110: 62d9 b3be 782e 9c3d cd53 02bf 4a7c ddbe
00000120: 6a5f 10bf ef73 02be de92 05bf 7eee adbe
00000130: ed61 13bf 9b99 4e3e 52de dbbc 94da ecbe
00000140: 3cdf f6bb 8f81 12bf 1aec fcbe a3e3 2ebf
00000150: 085c 1bbf 0814 53be e1c6 1bbf ae62 d5be
00000160: 96f0 dcbe 404c 11bf 078a 2ebe 262f 06be
00000170: 8275 a93d 0dc2 2dbf 3308 42bb 7823 c3be
00000180: 5450 c6be 0474 65be e3df 3bbc 6bd3 3cbf
00000190: d407 fabe 8004 d43e 8b33 a1be 58db 97be
000001a0: e93c 39be 84b7 19bf 82ba e9be 6093 2cbf
000001b0: ab5d 273e 18ee a0be ec78 23bd cc24 2bbe
000001c0: 6eda 26bf 5046 05bf cde2 df3e d7bf b8be
000001d0: 2a0c e63d 742f 04be 1629 93bc 6850 f5be
000001e0: b319 8dbe 27c8 743e c6fa 31bf 3a18 bf3d
000001f0: 5c2b 5a3d d9a2 cabe ce06 09bf c5fa a1be
00000200: d95a 21bf fdda bcbe 59fa 0bbf 473a e6be
00000210: 6db5 29bf b368 453e 988d 4dbe 329f d5be
00000220: 9217 1ebf 37c6 18be fb41 eebe cf39 3f3e
00000230: 846f 153e b4e7 d8be 15a2 c93d 641d f6be
00000240: 3e80 1cbf c93b cabe 0804 0bbf 3f98 f2be
00000250: ebcd aabe 7ae1 b9be 467a cdbe fc42 9fbe
00000260: 84df 95be d394 22bf 208f 2dbf de00 c9be
00000270: ae22 9ebe 7d32 babd 88ae 86be 2708 d4be
00000280: d392 3abf 3779 62be f98e 05bf f4e7 a5be
00000290: 6e7d 9bbd b3e5 debd 7fb3 603e c7b2 81be
000002a0: e6d7 d9be 376b ac3d d02e 55bd fe32 ecbd
000002b0: fe7f 753d 3409 0cbf 9016 dfbe 2725 53bf
000002c0: fbc6 253d 17b4 29bf 21eb 78be 7cdc ddbe
000002d0: c200 38bf 84d3 aabe 4216 b73d cff5 b9bd
000002e0: 36fd adbe 0f1f ddbe b330 03bf 7d1d cfbe
000002f0: 450f e6be 68d0 98bd 5c37 8dbe 18bc 95be
00000300: 8387 05bf b58e a3be 1352 16bf 2f2d 0ebf
00000310: c8cc fbbd fe9e 1abf 5981 39bf e096 7fbe
00000320: d733 14bf 7449 01bf 5e0f cdbd b96e 18be
00000330: 5dd9 113c 057c 07be 1d43 c8be aac9 55be
00000340: 8c74 0abe fdca 96be 40cd 19bf 0a17 783e
00000350: ddd6 41bf 6b98 29be ec70 5cbe edd1 04be
00000360: 9b51 43bf 9821 ecbe 98cc b93d e82a b3be
00000370: 2976 dcbe d187 b7be 7e9a 27be d9cf 64be
00000380: 064b 3fbf 85fd 05bf c158 3ebe c898 16bf
00000390: 9acd ffbe 6b18 cebe caa6 39bb 9b4a cbbe
000003a0: c4b8 893d ce70 37bf aa03 1abf 91d3 593e
000003b0: a6d4 05bf c3f9 82be 4e14 eebe ff9f b3bd
000003c0: 52fd 96be 410a c9be 66a8 d2be 22e8 e2be
000003d0: f86a 0ebf 6d40 00bf 4423 e0be 5f7e a3be
000003e0: 5c75 f2be e3e5 d8bd 638f 3abf d5c4 fbbe
000003f0: dfd6 81be 3d6f f9be 4823 853d bdff 18bf

batch_norm.running_mean f4 [400]
0.20085153 0.20502144 0.109300084 -0.13867463 0.46214667 -1.1531059 -0.5852968 0.371206
-0.48802385 -0.3143826 0.82950735 0.016371159 -0.30932733 -0.8557887 0.35129765 0.6593539
0.12894362 -0.28227141 -0.01673089 -0.37790054 0.30130157 0.6254414 -0.1357826 0.51250744
0.07782897 -1.2136273 -0.21963927 0.51942766 -0.30441913 0.35125914 -1.3439989 -0.46705803
-0.399748 -0.18113329 -0.5526824 -0.65778726 0.10968578 0.09704327 0.014709065 -0.92556596
-0.12731093 0.6178226 -0.24059957 0.82515156 -0.124746025 0.93726754 0.1497414 0.05419588
-0.037143152 -0.878248 -0.9095987 -0.2562591 0.45698768 0.72150886 0.6963074 0.6126512
0.06500669 -0.6526089 -1.0729837 -1.0783825 0.6982554 -1.0938971 -0.48587316 0.6549848
0.009554226 0.20218104 0.21016836 0.5681728 -0.9240633 1.2342389 0.47338513 -0.04744553
-0.09912509 -0.065023266 0.7640141 -0.21332903 -0.16031337 0.9329081 -0.31955612 -0.034098443
1.1846415 -0.15534079 -0.76222324 -1.0410374 -0.6252678 0.16082421 0.25248128 0.02762812
0.006848164 -0.19010237 -0.8864014 -0.2946214 0.51349205 -0.1781085 0.16376881 -0.33323517
0.71700644 -0.37321165 0.91411436 -0.7832864 -0.011057463 -0.064208634 -0.0038769224 -1.2279903
-0.21515997 -0.6274651 0.02963416 0.2771799 -0.25133827 0.059415113 0.8439288 -0.8517484
-0.50295043 -0.2789572 0.53978384 0.65372807 0.14630964 -0.275901 -0.44884 -0.68383425
-0.07669377 0.3805479 0.78494036 1.0343329 1.5773559 -0.24765621 -0.21617015 0.5352673
-0.035176247 -0.06781339 0.30773228 -0.27206278 0.32483047 -0.05085197 -0.3829548 -0.1300885
0.5927649 0.108080946 0.4753568 0.08486354 0.60111904 0.49809286 -0.8601672 -0.41066155
-0.5798334 0.89293045 0.21016026 -0.52265203 -0.25760135 -0.28407782 0.57677716 0.6749172
0.26264912 -0.6631401 -0.18039255 -0.0070482558 -0.4814581 -0.27414888 -0.21077673 0.03757024
-0.6135394 -0.5085244 -0.109581895 -0.8951743 0.09393652 -0.02516512 0.14917596 -0.09339016
0.20437887 0.8036249 -0.4935384 -0.56299275 0.68933225 -0.6798623 -0.79592085 -0.3214329
0.26175264 0.7239572 -0.5580392 -0.3055085 -0.13208272 -0.014156329 0.73075104 -0.30316892
-0.34093985 0.34969664 -0.5311871 -0.54609984 0.008180024 0.7791587 0.5048973 -0.50956047
-0.45882395 0.7347239 -0.81444377 0.4425802 0.8823982 0.15071546 -0.08520572 0.6003524
-0.3623846 -0.037728388 0.28664833 0.26883957 0.62845486 -0.013182662 -0.23001978 0.0108739175
1.0416087 0.43214583 -0.34136882 0.76989484 -0.08116994 0.2609296 -0.50433743 -0.5573388
-0.74684256 -0.77125233 -0.6702931 0.10796598 -0.7260044 -0.69231784 -1.1836488 -0.3900214
-0.296866 -0.65351546 -0.7523474 1.0285497 0.89209694 -0.48790565 0.1401989 0.20714955
-0.7332185 -0.47351134 -0.3258417 0.5824832 -0.4024362 0.50021106 -0.31970692 0.055467658
-0.63711727 0.3156911 -0.869703 0.13339119 -0.03878526 0.07672286 0.11139257 0.012904095
-0.13378467 0.6816636 0.23507608 0.31185272 0.6082225 0.43546224 0.071456045 1.5336078
00000000: 06ac 4d3e 24f1 513e b9d8 df3d b900 0ebe
00000010: 7d9e ec3e f998 93bf 03d6 15bf b60e be3e
00000020: 43de f9be c2f6 a0be 985a 543f cf1c 863c
00000030: 2760 9ebe f814 5bbf 49dd b33e 6bcb 283f
00000040: cc09 043e e185 90be 380f 89bc 2e7c c1be
00000050: 3344 9a3e ed1c 203f 980a 0bbe b033 033f
00000060: cc64 9f3d 2458 9bbf 1ee9 60be 36f9 043f
00000070: d3dc 9bbe 3dd8 b33e 2808 acbf 3b22 efbe
00000080: c5ab ccbe 017b 39be 987c 0dbf bf64 28bf
00000090: f0a2 e03d 9fbe c63d 4afe 703c e4f1 6cbf
000000a0: cc5d 02be 9f29 1e3f bc5f 76be 223d 533f
000000b0: d87a ffbd c4f0 6f3f cf55 193e 80fc 5d3d
000000c0: 6b23 18bd dcd4 60bf 76db 68bf 6534 83be
000000d0: 4afa e93e ceb4 383f 3441 323f b6d6 1c3f
000000e0: 3a22 853d 6011 27bf 8857 89bf 7008 8abf
000000f0: dec0 323f d204 8cbf 5ec4 f8be 15ad 273f
00000100: 5489 1c3c 8c08 4f3e 6036 573e c673 113f
00000110: 6a8f 6cbf 8afb 9d3f 895f f23e 3e56 42bd
00000120: 1802 cbbd eb2a 85bd 6e96 433f ed72 5abe
00000130: 3029 24be 11d3 6e3f dc9c a3be cfaa 0bbd
00000140: 55a2 973f a811 1fbe 1021 43bf b740 85bf
00000150: 8d11 20bf 1aaf 243e 3a45 813e 5e54 e23c
00000160: 9066 e03b 32aa 42be 34eb 62bf 9ed8 96be
00000170: 3774 033f 1362 36be 03b3 273e cd9d aabe
00000180: bc8d 373f 9915 bfbe 6603 6a3f 7585 48bf
00000190: 5c2a 35bc d17f 83bd f713 7ebb c92e 9dbf
000001a0: e552 5cbe 8ea1 20bf 57c3 f23c 86ea 8d3e
000001b0: 69af 80be 435d 733d b80b 583f 2f0c 5abf
000001c0: 5cc1 00bf 7ad3 8ebe 462f 0a3f b95a 273f
000001d0: 32d2 153e e542 8dbe 5bce e5be c30f 2fbf
000001e0: a011 9dbd 2dd7 c23e daf1 483f 0565 843f
000001f0: cce6 c93f 9799 7dbe b55b 5dbe 4707 093f
00000200: f814 10bd bfe1 8abd 168f 9d3e d04b 8bbe
00000210: 2e50 a63e 284a 50bd a712 c4be eb35 05be
00000220: 71bf 173f 8b59 dd3d f761 f33e f0cc ad3d
00000230: f0e2 193f 0706 ff3e eb33 5cbf 3b42 d2be
00000240: f66f 14bf 1797 643f 4034 573e 86cc 05bf
00000250: 53e4 83be a672 91be aba7 133f 60c7 2c3f
00000260: f279 863e 8dc3 29bf d3b8 38be 0ef5 e6bb
00000270: ad81 f6be 3e5d 8cbe dbd5 57be 41e3 193d
00000280: eb10 1dbf a82e 02bf 796c e0bd 252a 65bf
00000290: ca61 c03d 1527 cebc 95c1 183e 5743 bfbd
000002a0: b248 513e 5dba 4d3f 11b1 fcbe 4b20 10bf
000002b0: 1478 303f 750b 2ebf 78c1 4bbf da92 a4be
000002c0: 7104 863e 4255 393f a8db 0ebf 9c6b 9cbe
000002d0: b140 07be f3ef 67bc 8012 3b3f f538 9bbe
000002e0: ab8f aebe 700b b33e e1fb 07bf 33cd 0bbf
000002f0: 8205 063c f276 473f f340 013f 8e72 02bf
00000300: f9ea eabe de16 3c3f 637f 50bf df99 e23e
00000310: d9e4 613f 2755 1a3e 5680 aebd b2b0 193f
00000320: 798a b9be 1589 1abd 92c3 923e 57a5 893e
00000330: 6be2 203f 18fc 57bc 4e8a 6bbe 8428 323c
00000340: 6f53 853f 3842 dd3e e5c7 aebe d417 453f
00000350: 6d3c a6bd 9198 853e 421c 01bf c1ad 0ebf
00000360: 1331 3fbf cb70 45bf 5498 2bbf 451d dd3d
00000370: 6ddb 39bf be3b 31bf ce81 97bf e3b0 c7be
00000380: d2fe 97be ca4c 27bf d799 40bf 84a7 833f
00000390: 7760 643f c5ce f9be 4d90 0f3e 031f 543e
000003a0: 35b4 3bbf 1470 f2be b9d4 a6be 9e1d 153f
000003b0: 1e0c cebe d50d 003f a0b0 a3be 0e32 633d
000003c0: 1e1a 23bf 44a2 a13e dba4 5ebf b397 083e
000003d0: 4bdd 1ebd e020 9d3d ca21 e43d b36b 533c
000003e0: d9fe 08be 8181 2e3f c9b7 703e 29ab 9f3e
000003f0: 78b4 1b3f e8f4 de3e 8c57 923d 434d c43f

batch_norm.running_var f4 [400]
0.226922 0.22713062 0.74819076 1.5541385 3.40306 2.2841635 0.24674621 2.1947775
2.1867228 1.5872998 1.1772673 0.9991256 0.45995817 1.0884978 1.3046402 1.0425628
0.9715147 0.36333993 2.8587515 0.61744595 0.73219204 3.669718 0.42449743 2.250334
0.08470763 2.6636364 0.113355845 1.2158746 0.6491742 0.13321151 0.4570392 1.2103099
0.2068852 0.74082094 1.0403467 0.9740671 0.50775397 0.28436762 0.34113064 0.71070486
0.6244999 0.6474632 1.3218778 1.085448 0.28691795 1.6184366 2.336915 2.062581
1.4169865 0.60450226 0.9292603 3.440377 2.0794754 0.7188195 0.32517907 2.1014998
1.0380105 5.25365 0.651275 0.33481473 0.54115754 0.4671079 0.56723917 1.0223594
1.3544244 3.7549386 0.39436877 0.8422966 0.6951775 1.1538076 0.75454795 0.2723324
0.23067507 0.5729946 4.9008355 0.36031547 0.21517566 0.20979618 0.4679155 0.8870687
2.4042318 0.4692277 0.4347705 1.5345472 0.9554398 1.2445538 7.0941834 0.38984206
0.10555797 0.6552502 0.45778242 1.7969483 0.46996102 4.5530205 0.26873004 0.9078912
0.8530372 0.965994 0.2963797 0.20676747 0.20444521 2.3016355 2.3242838 2.5604544
0.7710976 2.004246 2.2923694 0.91329455 0.5777646 0.37414196 0.63788354 0.30556753
0.4792431 0.19604394 0.55335873 0.7475092 4.73263 0.6988438 0.8077228 0.69767356
2.1596074 0.7355606 1.0738842 1.112112 0.546485 1.5113152 0.4037336 0.99576086
1.3014197 0.20113654 4.619857 0.511363 0.3632102 0.8366453 2.2322593 0.35230222
0.7115609 0.3923628 0.8022037 0.61580044 0.5075202 2.982094 0.795453 0.53080446
3.6242323 1.6183455 1.0986173 2.7234728 1.6985375 1.265747 0.43072775 0.27008992
0.9679396 0.33556575 0.5238967 1.7040366 0.7601583 2.2401981 0.7686628 1.020267
1.0838673 0.31742567 1.2107103 0.6780446 1.1352813 1.7172157 0.69329286 0.58544946
0.33164382 0.7347607 1.6047968 0.44479594 2.0169215 0.49208498 0.40966743 0.6403607
1.4667252 3.5097263 2.3967187 0.89207625 0.28169954 0.24609013 1.1512468 1.214502
2.0797045 0.42687622 0.6344242 0.5016978 0.6301153 0.9578151 0.4011784 1.3930218
2.651707 1.7038631 3.890125 1.5162443 0.49000928 0.7722618 1.8779354 4.147519
0.7276284 0.9029583 0.59922767 0.2865492 1.266765 1.2651802 1.0233651 2.7913897
0.43108422 1.1247365 0.17524214 0.14944753 0.074018985 0.5423961 0.2635443 0.6670972
1.0732532 2.3698797 3.9838421 1.2333521 0.3361826 1.848731 2.3387132 3.5867345
0.24895608 1.4694712 0.08858464 0.27491304 0.44308662 0.44677314 0.29745147 1.8376541
0.3532662 1.708751 0.5406717 6.1971464 1.6703842 1.0282708 0.4990299 0.31171313
0.91124386 0.6382161 1.2013974 2.3677683 1.0563209 0.3672824 0.5299821 1.3119735
0.5527282 1.0748937 0.2893024 1.5598001 0.29938635 0.08380817 1.8791465 1.1289322
00000000: 3e5e 683e ee94 683e 6e89 3f3f 03ee c63f
00000010: bccb 5940 bc2f 1240 0aab 7c3e 3c77 0c40
00000020: 44f3 0b40 a42c cb3f b2b0 963f b2c6 7f3f
00000030: a37f eb3e e553 8b3f 73fe a63f b372 853f
00000040: 30b5 783f b107 ba3e c9f5 3640 f010 1e3f
00000050: f070 3b3f a9dc 6a40 ba57 d93e 7905 1040
00000060: 327b ad3d 0579 2a40 1c27 e83d c7a1 9b3f
00000070: 4830 263f 9968 083e 0b01 ea3e 6feb 9a3f
00000080: b7d9 533e 71a6 3d3f 152a 853f 765c 793f
00000090: 2afc 013f a298 913e ada8 ae3e c1f0 353f
000000a0: 3adf 1f3f 26c0 253f 4b33 a93f f6ef 8a3f
000000b0: e9e6 923e ee28 cf3f 0490 1540 5401 0440
000000c0: d05f b53f a9c0 1a3f 01e4 6d3f 232f 5c40
000000d0: 2016 0540 8e04 383f df7d a63e f97e 0640
000000e0: 87dd 843f e71d a840 f5b9 263f d66c ab3e
000000f0: 4d89 0a3f c428 ef3e 9636 113f acdc 823f
00000100: c75d ad3f ea50 7040 b4ea c93e c0a0 573f
00000110: 27f7 313f f8af 933f 0e2a 413f 276f 8b3e
00000120: 1636 6c3e c6af 123f a5d3 9c40 457b b83e
00000130: 0257 5c3e cfd4 563e 9f92 ef3e ef16 633f
00000140: efde 1940 9d3e f03e 3d9a de3e 0b6c c43f
00000150: b497 743f 8a4d 9f3f 8d03 e340 6199 c73e
00000160: c72e d83d 7abe 273f 7562 ea3e 6702 e63f
00000170: bb9e f03e 58b2 9140 fc96 893e 8f6b 683f
00000180: a560 5a3f 624b 773f 14bf 973e daba 533e
00000190: 165a 513e ff4d 1340 11c1 1440 7cde 2340
000001a0: a766 453f 9145 0040 2eb6 1240 accd 693f
000001b0: 61e8 133f 898f bf3e 564c 233f 5973 9c3e
000001c0: 5a5f f53e bebf 483e eba8 0d3f c35c 3f3f
000001d0: b471 9740 6de7 323f ecc6 4e3f bc9a 323f
000001e0: 0237 0a40 b34d 3c3f 0a75 893f b059 8e3f
000001f0: 71e6 0b3f c772 c13f 2cb6 ce3e 2fea 7e3f
00000200: ec94 a63f bdf6 4d3e ded5 9340 b0e8 023f
00000210: b0f6 b93e 632e 563f 56dd 0e40 f560 b43e
00000220: db28 363f c7e3 c83e 395d 4d3f 19a5 1d3f
00000230: d8ec 013f a1da 3e40 cfa2 4b3f cde2 073f
00000240: 6cf3 6740 f225 cf3f 7e9f 8c3f 614d 2e40
00000250: ad69 d93f ff03 a23f 5988 dc3e 3a49 8a3e
00000260: e4ca 773f 46cf ab3e 181e 063f df1d da3f
00000270: bc99 423f 685f 0f40 16c7 443f 1c98 823f
00000280: 2abc 8a3f 9e85 a23e 8ef8 9a3f 5594 2d3f
00000290: e650 913f b9cd db3f a47b 313f 04e0 153f
000002a0: 38cd a93e 4719 3c3f fb69 cd3f 4bbc e33e
000002b0: 3e15 0140 90f2 fb3e eebf d13e aeee 233f
000002c0: a7bd bb3f 5b9f 6040 d763 1940 1c5f 643f
000002d0: ec3a 903e 0dff 7b3e 0e5c 933f cd74 9b3f
000002e0: e119 0540 858f da3e a069 223f 446f 003f
000002f0: 3c4f 213f 5f33 753f 4167 cd3e 8a4e b23f
00000300: 91b5 2940 3018 da3f cff7 7840 4b14 c23f
00000310: 7fe2 fa3e f3b2 453f 3060 f03f 7ab8 8440
00000320: db45 3a3f 4628 673f fc66 193f 94b6 923e
00000330: 5b25 a23f 6df1 a13f a1fd 823f 21a6 3240
00000340: 12b7 dc3e 5ef7 8f3f ad72 333e c608 193e
00000350: 4497 973d 79da 0a3f 47ef 863e e2c6 2a3f
00000360: 5c60 893f 1cac 1740 45f7 7e40 7bde 9d3f
00000370: 2020 ac3e 38a3 ec3f 7aad 1540 0f8d 6540
00000380: 58ee 7e3e a217 bc3f dd6b b53d 67c1 8c3e
00000390: 40dc e23e 73bf e43e 8f4b 983e 4038 eb3f
000003a0: 4fdf b43e 5ab8 da3f 7669 0a3f 064f c640
000003b0: 26cf d53f 619e 833f d980 ff3e dd98 9f3e
000003c0: 4747 693f 2162 233f 64c7 993f 8489 1740
000003d0: 8635 873f 700c bc3e e8ac 073f bfee a73f
000003e0: 987f 0d3f 1e96 893f 721f 943e 88a7 c73f
000003f0: 2b49 993e 9ea3 ab3d df87 f03f da80 903f

fc2.weight f4 [300, 400]
0.24407215 0.12926863 0.23915298 0.19020566 0.052579712 0.03717747 -0.2605155 0.10337102
-0.06357133 -0.037897702 -0.13784063 -0.03704592 -0.29180905 -0.090232916 -0.08547379 -0.046873312
0.13234617 0.30353457 -0.0693421 -0.3260011 -0.018823002 0.030930186 -0.16293335 0.32864892
0.0273273 -0.04470864 -0.07361172 0.19101468 -0.06710936 0.077125765 -0.14843728 -0.089542
-0.023351327 -0.31163868 0.03835784 -0.16916963 0.17633326 -0.056734346 0.27433068 0.21642476
-0.06393769 -0.006469845 -0.3576406 -0.46538746 0.0072172126 -0.33538815 0.115333125 -0.07703296
-0.5295001 -0.12430276 -0.49260366 0.10991799 0.0951666 -0.017858185 0.05399798 -0.12565452
0.07860648 0.1610646 0.23063982 0.107465856 -0.07910603 -0.014682723 0.016018383 -0.058492534
-0.0043612327 0.24393024 -0.3304697 0.05419962 0.06411344 0.078532785 -0.09624354 0.23046087
0.0053747375 -0.036839753 0.110168174 0.19222072 0.0893679 -0.34881416 -0.015065287 -0.19049595
-0.24318443 0.3101474 0.22979033 0.21558203 0.44433585 -0.114710264 -0.03024376 -0.17118208
-0.03947563 0.22725941 -0.0069217472 -0.01816982 -0.35647115 0.17824829 0.0048118737 0.09862058
0.2524639 0.26092607 0.027593823 0.259915 0.18854317 -0.29233265 0.3386181 0.092535324
-0.22703171 -0.19775183 -0.055375658 0.06501966 -0.3315428 -0.06648473 0.09984438 -0.001574872
0.08222949 0.1869586 -0.010823942 -0.18537492 -0.03560365 -0.08404314 -0.64730775 0.14571989
-0.10639927 -0.17919905 -0.33827227 -0.19185036 -0.19869189 -0.06670291 0.1590402 -0.07521972
0.030935895 0.014476651 0.0022173934 -0.24405858 -0.14868632 -0.21820071 -0.29632315 -0.29992402
0.087535664 -0.026951889 -0.035089254 -0.080024846 -0.27283585 0.013102486 -0.27096042 -0.13671495
-0.03703691 -0.3159267 -0.21945614 0.050026875 0.085240714 -0.07819484 -0.075343326 0.09409038
-0.12430864 -0.05864147 0.045786876 0.1361468 0.08968031 -0.22464101 0.22959352 0.19161779
0.06272379 -0.28629076 -0.026956921 -0.22637367 -0.58405757 -0.08677941 -0.21371955 0.15211731
0.08453443 0.07663276 -0.42764768 0.027188225 0.07441596 -0.036551885 0.011098306 0.051552802
-0.054083757 -0.27259824 -0.012170525 0.10113583 0.064107284 -0.22863118 -0.18063891 -0.077969134
0.25293428 -0.07962223 0.01272103 0.13422057 -0.30362335 -0.012100585 0.098581575 0.07327587
0.19336048 0.28707433 0.062632695 -0.15453556 -0.1146556 0.23344587 -0.016791433 -0.14323136
0.30173942 0.19952469 0.022035072 0.07655033 -0.15638436 0.15873343 -0.0036149544 -0.09615798
-0.17575419 0.016544541 -0.016143842 -0.19295923 -0.1219095 0.00042869765 0.21183765 -0.19474798
0.090448506 -0.047020655 -0.011823889 -0.021680238 -0.13077869 0.43582803 -0.06326245 -0.21102569
0.038460955 -0.06619426 -0.0739369 0.15770626 0.1789844 -0.198491 0.056159288 0.21450937
-0.24465548 0.067279704 -0.092913695 -0.23861885 -0.11981192 -0.23982918 0.21470223 -0.004527162
0.046096537 -0.2945287 0.1912183 0.20648062 0.0041631283 0.17251922 0.05774155 0.15748416
-0.5565206 -0.4149985 0.030959362 0.13677551 -0.07457687 0.16590187 -0.13868946 0.26179722
00000000: 0dee 793e ff5e 043e 85e4 743e 46c5 423e
00000010: d35d 573d 6747 183d 4a62 85be 2fb4 d33d
00000020: af31 82bd 9f3a 1bbd 1826 0dbe 76bd 17bd
00000030: ff67 95be 09cc b8bd e20c afbd 3bfe 3fbd
00000040: c185 073e e268 9b3e 3b03 8ebd 9ee9 a6be
00000050: b232 9abc 4d61 fd3c 00d8 26be ac44 a83e
00000060: 80dd df3c 6820 37bd bec1 96bd 5a99 433e
00000070: a270 89bd 1df4 9d3d f1ff 17be cc61 b7bd
00000080: 484b bfbc 1b8f 9fbe 1c1d 1d3d ce3a 2dbe
00000090: b590 343e 4662 68bd 1275 8c3e 749e 5d3e
000000a0: c3f1 82bd fe00 d4bb ab1c b7be 4447 eebe
000000b0: 5e7e ec3b ffb7 abbe c633 ec3d 75c3 9dbd
000000c0: 528d 07bf 7292 febd 8c36 fcbe af1c e13d
000000d0: b5e6 c23d 544b 92bc fc2c 5d3d 94ab 00be
000000e0: 6ffc a03d 1eee 243e d82c 6c3e 0f17 dc3d
000000f0: 5802 a2bd ce8f 70bc fc38 833c de95 6fbd
00000100: ace8 8ebb d9c8 793e 5333 a9be 6c00 5e3d
00000110: e84d 833d ccd5 a03d 551b c5bd effd 6b3e
00000120: 911e b03b 48e5 16bd da9f e13d 82d5 443e
00000130: 8406 b73d c597 b2be 65d4 76bc 5f11 43be
00000140: 5705 79be a4cb 9e3e 284e 6b3e 89c1 5c3e
00000150: fd7f e33e 37ed eabd c3c1 f7bc 5b4a 2fbe
00000160: 33b1 21bd b1b6 683e d3cf e2bb e0d8 94bc
00000170: 6383 b6be b886 363e ecac 9d3b 96f9 c93d
00000180: f342 813e 1a98 853e 710c e23c 9413 853e
00000190: 7611 413e a0ac 95be 5a5f ad3e 2983 bd3d
000001a0: 007b 68be 757f 4abe 96d1 62bd 0729 853d
000001b0: fabf a9be 2529 88bd 367b cc3d ef6b ceba
000001c0: ef67 a83d 1372 3f3e e756 31bc ecd2 3dbe
000001d0: 22d5 11bd cf1e acbd f6b5 25bf 9837 153e
000001e0: dce7 d9bd f57f 37be 0632 adbe 6c74 44be
000001f0: e375 4bbe 899b 88bd 6fdb 223e cc0c 9abd
00000200: 466d fd3c 7a2f 6d3c b051 113b 7eea 79be
00000210: 3a41 18be 0270 5fbe abb7 97be a48f 99be
00000220: e645 b33d 35ca dcbc c0b9 0fbd 11e4 a3bd
00000230: 24b1 8bbe cfab 563c 53bb 8abe 01ff 0bbe
00000240: 04b4 17bd 25c1 a1be 1cb9 60be fbe8 4c3d
00000250: af92 ae3d 9e24 a0bd 9a4d 9abd 75b2 c03d
00000260: 8795 febd 0a32 70bd 058b 3b3d 116a 0b3e
00000270: 4faa b73d 4b08 66be 901a 6b3e 7437 443e
00000280: 5575 803d b494 92be c3d4 dcbc 80ce 67be
00000290: cc84 15bf 67b9 b1bd 4cd9 5abe a4c4 1b3e
000002a0: 6320 ad3d a3f1 9c3d a3f4 dabe d7b9 de3c
000002b0: 6567 983d 6eb7 15bd abd5 353c 0829 533d
000002c0: ee86 5dbd ff91 8bbe e266 47bc 4d20 cf3d
000002d0: ae4a 833d 4b1e 6abe 68f9 38be 48ae 9fbd
000002e0: 9a80 813e fb10 a3bd de6b 503c 1e71 093e
000002f0: 8574 9bbe 8841 46bc 23e5 c93d a911 963d
00000300: 4a00 463e 68fb 923e 9245 803d 923e 1ebe
00000310: 8ed0 eabd 6f0c 6f3e 308e 89bc 3eab 12be
00000320: 977d 9a3e 3350 4c3e e582 b43c 6bc6 9c3d
00000330: 3923 20be 048b 223e dfe8 6cbb 7aee c4bd
00000340: e8f8 33be 6b88 873c 1740 84bc 1b97 45be
00000350: b0ab f9bd d3c2 e039 f8eb 583e 046c 47be
00000360: 113d b93d bb98 40bd fcb8 41bc c19a b1bc
00000370: d9ea 05be da24 df3e be8f 81bd 1e17 58be
00000380: 3c89 1d3d db90 87bd 3b6c 97bd c07d 213e
00000390: b047 373e 3a41 4bbe 4807 663d 58a8 5b3e
000003a0: f786 7abe f1c9 893d 8949 bebd 8058 74be
000003b0: f45f f5bd c895 75be e7da 5b3e 9658 94bb
000003c0: b9cf 3c3d 77cc 96be bbce 433e a86f 533e
000003d0: da6a 883b e1a8 303e 6782 6c3d 8743 213e
000003e0: 2278 0ebf af7a d4be 7d9e fd3c e10e 0c3e
000003f0: c2bb 98bd 2ee2 293e 9c04 0ebe 490a 863e

fc2.bias f4 [300]
-0.26337215 0.0005442321 -0.22537303 -0.16425909 -0.20306271 -0.18793394 -0.08306652 -0.14685877
-0.20811513 -0.042597037 -0.07722222 0.078957155 -0.22805862 -0.23108213 -0.009118796 -0.13199162
-0.13985091 0.03936719 0.024509512 -0.26405108 -0.061551783 -0.2518648 -0.09049291 0.10034986
-0.29441115 -0.21493138 -0.12043541 -0.27319184 -0.02818042 -0.38124895 0.21180092 -0.02548594
-0.02581787 -0.08303229 -0.19708723 0.18162611 -0.15469027 -0.20192483 0.15470305 -0.1342232
0.09543623 -0.2235648 0.2491762 -0.0017164801 0.22356087 -0.020519022 0.08273331 -0.117568314
-0.100402065 -0.1746551 0.1340857 -0.22787431 -0.21165982 0.16597815 0.024959184 0.032682583
0.12755327 -0.30427235 0.008663964 -0.29281002 -0.10115977 -0.06882181 0.06113591 -0.13253914
0.013854474 -0.13078547 0.11308295 -0.24438912 -0.2689947 0.0057733757 -0.021738244 -0.058350906
-0.21329953 0.0010740177 -0.08056722 -0.28962073 -0.19978836 -0.28620395 0.023168322 -0.050593413
0.09405214 0.045398388 -0.031780142 0.1705374 -0.06798252 -0.020436618 0.3490426 -0.054831073
0.13924423 -0.09510487 0.08721598 -0.38584188 -0.21963008 0.051137075 -0.0026629285 -0.0977504
-0.022144997 -0.12932253 -0.18569995 -0.17336033 0.011136592 0.19698422 0.12410369 0.050207224
-0.26971757 0.12884016 0.25026634 0.1575939 0.22729555 -0.03456897 -0.12053637 -0.1053792
-0.27139983 -0.23962192 -0.025719387 -0.18635924 0.26994294 0.22533973 -0.017313855 -0.29631728
-0.27706328 0.08412547 -0.29499465 0.08720382 -0.06608387 0.05804712 0.024725001 -0.14316179
-0.29206535 -0.15316321 -0.07410224 -0.13659152 -0.05359473 -0.14064509 0.15063289 -0.047042064
-0.17612463 -0.05807353 0.16613834 0.08480977 0.024483748 -0.15924205 -0.09417568 -0.32686135
-0.33500248 -0.1801084 0.15675765 -0.052641135 0.3487377 0.01003861 -0.1292982 -0.031444363
-0.17867525 0.17440952 -0.064737774 -0.012403081 -0.24086007 -0.0786781 -0.0073316097 0.18318246
-0.074663855 -0.3360173 -0.04250755 0.075676225 0.017597603 -0.38904887 -0.20784862 0.027542066
-0.35017252 -0.099996775 0.060966663 -0.13094233 -0.07439589 -0.23861118 -0.00028575014 0.05393403
0.027094724 -0.14144857 0.007754046 -0.1731209 0.23324858 -0.22591414 -0.162189 -0.00627329
0.11853458 0.004944076 0.1599469 0.023210082 -0.044037964 -0.3101527 -0.19725402 -0.060402755
-0.11648909 -0.37194815 -0.2652315 -0.08647748 -0.11221573 -0.08181966 0.06493956 0.2319443
-0.08901177 -0.047445063 0.0068348595 -0.04472397 0.05820723 -0.05073709 -0.017247077 -0.2648239
-0.23345457 -0.077244334 -0.11529998 0.05287052 -0.033582874 0.1861694 -0.033710625 0.1972421
-0.15535702 -0.16838843 -0.066514544 0.025317214 -0.020927537 -0.023608705 0.30561295 -0.026263272
-0.21204549 -0.21812502 -0.25688884 -0.2840126 -0.19825026 0.038299568 -0.22991218 0.08181204
0.3860316 0.1178163 0.23977101 -0.10225122 -0.06031177 -0.159696 -0.32148492 -0.14504924
0.009470818 -0.2040409 0.16356412 -0.48118913 -0.19937216 0.11396669 -0.11501517 -0.09455124
-0.20689997 -0.072071 0.059527446 -0.18147781 -0.19261262 0.180127 0.19591033 0.029903473
00000000: b7d8 86be ccaa 0e3a 30c8 66be 8933 28be
00000010: acef 4fbe c171 40be c81e aabd 2562 16be
00000020: 221c 55be 3b7a 2ebd af26 9ebd 4ab4 a13d
00000030: 3388 69be cba0 6cbe 0167 15bc d028 07be
00000040: 1435 0fbe 7e3f 213d 2cc8 c83c b431 87be
00000050: b91d 7cbd 6cf4 80be 5954 b9bd 3a84 cd3d
00000060: 0fbd 96be f916 5cbe d7a6 f6bd cddf 8bbe
00000070: a0da e6bc 1033 c3be 57e2 583e e4c7 d0bc
00000080: ff7f d3bc d50c aabd 3cd1 49be 32fc 393e
00000090: 2067 1ebe 62c5 4ebe 7a6a 1e3e ce71 09be
000000a0: 1274 c33d 2cee 64be 0c28 7f3e 84fb e0ba
000000b0: 24ed 643e 8217 a8bc 1570 a93d a8c7 f0bd
000000c0: 999f cdbd c9d8 32be c34d 093e e257 69be
000000d0: 5abd 58be 2df6 293e 3477 cc3c 2cde 053d
000000e0: 539d 023e 96c9 9bbe 4df3 0d3c 32eb 95be
000000f0: da2c cfbd 73f2 8cbd a669 7a3d 57b8 07be
00000100: e0fd 623c a0ec 05be 0998 e73d 2441 7abe
00000110: acb9 89be 962e bd3b 6714 b2bc 5c01 6fbd
00000120: 316b 5abe 0ec6 8c3a 6d00 a5bd 2b49 94be
00000130: 5295 4cbe 5389 92be 7ecb bd3c 0a3b 4fbd
00000140: 699e c03d a9f3 393d e52b 02bd 5ba1 2e3e
00000150: 6b3a 8bbd b26a a7bc b6b5 b23e 8c96 60bd
00000160: 0a96 0e3e 58c6 c2bd 4b9e b23d 118d c5be
00000170: b5e6 60be 1c75 513d 8784 2ebb 5d31 c8bd
00000180: 6d69 b5bc 206d 04be 2128 3ebe 5f85 31be
00000190: 4176 363c 3bb6 493e 132a fe3d 17a6 4d3d
000001a0: 6c18 8abe adee 033e e922 803e 4c60 213e
000001b0: 2ac0 683e 3198 0dbd c6db f6bd 0dd1 d7bd
000001c0: ebf4 8abe 735f 75be 77b1 d2bc f5d4 3ebe
000001d0: f635 8a3e 75bf 663e c9d5 8dbc e6b6 97be
000001e0: 3ddb 8dbe f949 ac3d 8a09 97be eb97 b23d
000001f0: fb56 87bd d1c2 6d3d 168c ca3c 0199 12be
00000200: 9789 95be d1d6 1cbe eac2 97bd a6de 0bbe
00000210: 2686 5bbd 4405 10be 823f 1a3e 2eaf 40bd
00000220: 045a 34be 83de 6dbd 2b20 2a3e bfb0 ad3d
00000230: 2492 c83c 5910 23be 2edf c0bd 5f5a a7be
00000240: 7285 abbe 566e 38be 1485 203e 3b9e 57bd
00000250: bf8d b23e fb78 243c bf66 04be cecb 00bd
00000260: a5f6 36be 6998 323e 3d95 84bd 4b36 4bbc
00000270: 06a4 76be fc21 a1bd 003e f0bb 2f94 3b3e
00000280: 5de9 98bd 760a acbe 661c 2ebd 23fc 9a3d
00000290: d928 903c 6a31 c7be 45d6 54be e69f e13c
000002a0: d049 b3be 1ccb ccbd 2eb8 793d bf15 06be
000002b0: df5c 98bd 7d56 74be bcd0 95b9 eee9 5c3d
000002c0: c1f5 dd3c e5d7 10be a715 fe3b 9b46 31be
000002d0: b7d8 6e3e 0956 67be e014 26be 2c90 cdbb
000002e0: 42c2 f23d ea01 a23b 1fc9 233e 1223 be3c
000002f0: 2761 34bd 56cc 9ebe f5fc 49be e168 77bd
00000300: d591 eebd fd6f bebe 6ccc 87be 1b1b b1bd
00000310: 5cd1 e5bd 1191 a7bd 08ff 843d ce82 6d3e
00000320: ce4b b6bd c155 42bd f5f6 df3b 7b30 37bd
00000330: b46a 6e3d b2d1 4fbd be49 8dbc 0097 87be
00000340: b70e 6fbe 4732 9ebd 6522 ecbd c28e 583d
00000350: 328e 09bd 31a3 3e3e 2714 0abd d5f9 493e
00000360: e915 1fbe 046e 2cbe c738 88bd 0c66 cf3c
00000370: 3a70 abbc 0b67 c1bc 4d79 9c3e 1326 d7bc
00000380: 7422 59be 2a5c 5fbe ef86 83be 196a 91be
00000390: 1e02 4bbe 02e0 1c3d 196e 6bbe 128d a73d
000003a0: efa5 c53e ac49 f13d 8886 753e 1669 d1bd
000003b0: 7909 77bd 5987 23be ac99 a4be ca87 14be
000003c0: 7d2b 1b3c 19f0 50be 5a7d 273e 6c5e f6be
000003d0: 3728 4cbe 5e67 e93d 138d ebbd 15a4 c1bd
000003e0: 96dd 53be f699 93bd 0dd3 733d 52d5 39be
000003f0: 3e3c 45be 3673 383e b89c 483e 21f8 f43c
