critic_checkpoint.pth (torch_old, 549502 bytes, 9 tensors)

fcs1.weight f4 [400, 33]
0	0xbf4374e9	-0.76350266
1	0xbf88791b	-1.0661958
2	0x3f6ba98f	0.920556
3	0x3fc1e68c	1.5148482
4	0xbfa980d3	-1.3242439
5	0xbec3144c	-0.38101423
6	0xbfa061b0	-1.2529812
7	0x3ec5c3f8	0.38626075
8	0x3f8cd168	1.1001406
9	0x3fe2ff07	1.7734078
10	0xbf0afdbb	-0.5429341
11	0x3ef5eda4	0.48032868
12	0x3e8cf395	0.27529588
13	0x3f1b464e	0.6065415
14	0x3ff13bd0	1.8846378
15	0xbfe9af6d	-1.8256661
16	0x3ff0d1cd	1.8814026
17	0xbd6b2d00	-0.057415962
18	0x3f9c02cb	1.2188352
19	0xbfb5eee1	-1.4213525
20	0x3eda3f02	0.42626196
21	0xbfaad769	-1.3346988
22	0x3b5f140a	0.0034039044
23	0x3db5910e	0.088655576
24	0x3f87aa7a	1.05989
25	0xbf71698f	-0.94301695
26	0x3ec91770	0.39275694
27	0x3d152f59	0.036422107
28	0x3fed18f3	1.8523239
29	0x3c9e922e	0.019356813
30	0x3d26c9d7	0.040719833
31	0xbc6b7ef4	-0.01437353
32	0xbfea67ad	-1.8312889
33	0x404898be	3.1343226
34	0xbce22e60	-0.027610004
35	0x3f4c515c	0.79811645
36	0x3c734313	0.014847535
37	0xbeaf9dcc	-0.34300077
38	0x3ff2837e	1.8946378
39	0xbee57805	-0.4481813
40	0xbe9e6382	-0.30935293
41	0x4044dd07	3.0759904
42	0xbeb29c0a	-0.34884673
43	0x3ec26cd0	0.37973642
44	0x3f515858	0.81775427
45	0x3ed4ef08	0.41588616
46	0xbfdea0e8	-1.7392855
47	0x3dd19e21	0.10235239
48	0xbec498c6	-0.38397807
49	0x3f9858c4	1.1902089
50	0xbf13d836	-0.57751787
51	0xbd3ee1bd	-0.046602
52	0xbf520e85	-0.82053405
53	0xbea513fd	-0.32241812
54	0x3ecd6952	0.40119416
55	0xbe180fc7	-0.14849769
56	0xbf2520f7	-0.64503425
57	0xbf132af5	-0.5748742
58	0x3f0b17bb	0.54333085
59	0x3e2a4613	0.16628294
60	0xbd1d1a1a	-0.03835497
61	0xbea46dee	-0.3211512
62	0xbcaa9ca3	-0.020826643
63	0x3ce0b63f	0.027430652
64	0xbcaddfb3	-0.021224832
65	0xc01315f7	-2.2982156
66	0x401df60b	2.4681423
67	0xbf856f06	-1.0424507
68	0x3ed590dc	0.4171208
69	0x3f29717b	0.6618878
70	0xc01151af	-2.2706106
71	0xc017f5b1	-2.3743708
72	0xbf347bf4	-0.7050164
73	0xbf8201b1	-1.0156766
74	0xbe9f7d64	-0.31150353
75	0xbf1a2951	-0.60219294
76	0x3f5c6650	0.86093616
77	0xbeca5fff	-0.39526364
78	0xbe4b6327	-0.19862042
79	0x3fa0f81e	1.2575719
80	0x3fb2535d	1.393169
81	0xbfb2889a	-1.3947937
82	0xbf85e973	-1.0461868
83	0x3d07f086	0.033188365
84	0x3f2b2086	0.668465
85	0xbcec28e5	-0.028828094
86	0x3d113658	0.035452217
87	0x3d50df06	0.05099394
88	0x3c7db04a	0.015483925
89	0x3f192464	0.5982115
90	0x3eb1ab85	0.34701172
91	0x3e959fb5	0.2922341
92	0xbf9c85cb	-1.222833
93	0x3d336af2	0.043803163
94	0x3f81e9f4	1.0149522
95	0xbcc75dfa	-0.024336804
96	0x3c21ec71	0.009883032
97	0xbd18ad68	-0.037274748
98	0x3fa8612e	1.3154657
99	0xbf5784ee	-0.8418721
100	0x3f2c9818	0.67419577
101	0x3f765530	0.96223736
102	0xbdb4a72f	-0.0882095
103	0x3f190124	0.59767365
104	0xbee620a9	-0.44946793
105	0x3fa27c28	1.269414
106	0x3fbd1d7f	1.4774626
107	0x3f650a06	0.8946842
108	0x40373b0b	2.8629787
109	0x3ea341e3	0.31886205
110	0x3f8d8e88	1.1059122
111	0x3dc8397e	0.09776591
112	0xbf53233f	-0.82475656
113	0x3f449d1d	0.76802236
114	0xbfbc1844	-1.4694905
115	0xbc719f08	-0.014747389
116	0xbe87f40c	-0.2655338
117	0x3f246c64	0.6422789
118	0x3f4cd479	0.8001171
119	0xbe53a1f7	-0.20667253
120	0x3d82c549	0.063852854
121	0xbf3d8a13	-0.7403881
122	0x3e4cdad1	0.20005347
123	0x3df30ea4	0.11868027
124	0xbf671064	-0.90259385
125	0x3fbe7be2	1.4881556
126	0x3cec6fde	0.028861936
127	0x3f4db585	0.803551
128	0xbd18584e	-0.03719359
129	0xbcc5fef2	-0.024169419
130	0xbd0b4a2d	-0.034006286
131	0xc08169d1	-4.044167
132	0xbf32ace8	-0.69795084
133	0x3eec5898	0.46161342
134	0x3f24b973	0.64345473
135	0xbf9d1059	-1.2270614
136	0x3e523e36	0.20531544
137	0xc05bcab6	-3.4342475
138	0x3f621896	0.88318765
139	0xbfdca41f	-1.7237586
140	0xbed9bb7f	-0.4252586
141	0xbf729d48	-0.9477124
142	0x3ee61bf5	0.44943205
143	0x3fccbdfa	1.5995476
144	0x3fa1343a	1.2594063
145	0xc000d43e	-2.0129542
146	0xbeaf0e03	-0.34190378
147	0x3fbb1dbc	1.4618449
148	0x40040269	2.062647
149	0x3c9d56eb	0.019206485
150	0x40139ba0	2.3063736
151	0xbe327b4c	-0.17429847
152	0xbeb1b59d	-0.34708872
153	0xbf071675	-0.5276864
154	0x3fa1ba71	1.2635022
155	0xbebfb7bd	-0.3744487
156	0xbe9a6e09	-0.30162075
157	0x3ec194c2	0.37808806
158	0x3d078ef4	0.033095315
159	0x3ce6bfa5	0.028167555
160	0xbe397c69	-0.18113865
161	0x3cef10ea	0.02918287
162	0xbc39b2fa	-0.011334175
163	0xbcb3b56a	-0.02193709
164	0x3e2521c1	0.16126157
165	0xbec25655	-0.3795649
166	0xc05831bc	-3.3780355
167	0xbf88417f	-1.0644988
168	0xc02691e5	-2.6026547
169	0x3fa86550	1.3155918
170	0x3feec35d	1.865337
171	0xbf54c3d5	-0.83111316
172	0x3dec6fd8	0.1154477
173	0xbf30805a	-0.6894585
174	0xc02968d2	-2.6470227
175	0x3f053aaa	0.5204264
176	0xbe947375	-0.28994337
177	0x3ca23ba0	0.019803822
178	0x3ec208e9	0.37897423
179	0x400dceb8	2.215742
180	0x3e8dc2e6	0.27687758
181	0xbe92dfc3	-0.28686342
182	0x3f648a5b	0.89273614
183	0xbed2869f	-0.41118333
184	0xbedc780b	-0.43060336
185	0x3dfe5de0	0.12420249
186	0xbc7a984d	-0.0152951
187	0x3e80b8c8	0.25140977
188	0x3d94296f	0.07234465
189	0x3e18ae41	0.14910223
190	0x3f0db927	0.55360645
191	0x3d28dc24	0.041225567
192	0xbd4521c6	-0.048127912
193	0x3fa40252	1.2813208
194	0xbd09890d	-0.033577967
195	0x3cbfa65a	0.023394752
196	0xbd136373	-0.035983514
197	0x40481d55	3.1267903
198	0xbf12160a	-0.5706488
199	0xbdd16fc7	-0.10226398
200	0xbdc851c5	-0.09781221
201	0xbf9b8394	-1.214953
202	0x3f447dd4	0.767545
203	0x3f29d921	0.6634694
204	0x3fd8ab60	1.69273
205	0x3e0403f9	0.1289214
206	0x3d37ffb6	0.0449216
207	0xbe23da52	-0.16001251
208	0x3b9d2b47	0.004796419
209	0xbaa93c76	-0.0012911696
210	0x3dc8d086	0.09805398
211	0xbb78d792	-0.0037970287
212	0x3e84d96b	0.25947127
213	0x3e2c0322	0.1679807
214	0xbf3a9b09	-0.72892815
215	0xbf6e32a0	-0.93046
216	0x3f9dd479	1.2330467
217	0x3ebabe8a	0.36473495
218	0xbdb13df6	-0.08654396
219	0x3e2b309c	0.16717762
220	0x3e3c300c	0.18377703
221	0x3e9de6ad	0.30840054
222	0xbc972d72	-0.018454287
223	0x3e6e7541	0.23286916
224	0x3f4cd4fe	0.800125
225	0x3c56394d	0.013075185
226	0xbf17b94e	-0.5926713
227	0xbd2a9a1a	-0.04165087
228	0xbcd2d192	-0.025734697
229	0xbbaea7d0	-0.0053300634
230	0x41340a46	11.252508
231	0xbf83f521	-1.0309182
232	0x3f4e12d1	0.8049746
233	0xbe5a90da	-0.21344319
234	0x39ec70b1	0.0004509739
235	0xbef807c1	-0.48443416
236	0xbff7780f	-1.9333514
237	0x3fd58160	1.6680107
238	0xbf30ca9e	-0.6905917
239	0xc032502b	-2.786143
240	0x3c9aa8cf	0.018879322
241	0xbfc1aa82	-1.513016
242	0xbf628256	-0.88480127
243	0xbf7af0c2	-0.9802362
244	0x3f893842	1.0720294
245	0x3f63a095	0.88916904
246	0x3f00c89b	0.503061
247	0xbf74ae1c	-0.9557817
248	0xbeb4256b	-0.35184798
249	0xbd29cc6a	-0.04145471
250	0xbe70df41	-0.23522665
251	0x3f35aa4e	0.7096299
252	0xbf376b58	-0.7164817
253	0x3f2a78f4	0.6659081
254	0xbe309cf6	-0.17247376
255	0x3f54d31a	0.83134615

fcs1.bias f4 [400]
0	0x3e061b87	0.13096438
1	0xbd623e7e	-0.05523538
2	0xbe2b3bbc	-0.16722006
3	0x39713e3d	0.00023006737
4	0xbe116cf4	-0.14201719
5	0x3dc3b148	0.09555298
6	0x3d32db8c	0.043666407
7	0x3dfc8550	0.12330115
8	0xbc834cab	-0.01602777
9	0xbe014527	-0.12624036
10	0x3e0fa8b9	0.14029206
11	0xbe00d3dc	-0.12580818
12	0x3ddfff44	0.1093736
13	0x3cc44f31	0.023963543
14	0x3d73b34e	0.05949717
15	0xbe07ca4f	-0.13260768
16	0xbe13717e	-0.14398763
17	0xbdaca359	-0.084295936
18	0xbdebe0ab	-0.115174614
19	0xbe19c2ea	-0.1501576
20	0xbd453688	-0.04814771
21	0x3e2aaaa0	0.16666651
22	0x3e06ab3f	0.13151263
23	0x3e1f879a	0.15579072
24	0x3d395856	0.04525026
25	0xbe054bea	-0.1301724
26	0x3de494d5	0.111612
27	0x3e2e46dc	0.17019218
28	0xbde1b914	-0.11021629
29	0xbb203404	-0.0024445066
30	0x3d1e2d82	0.03861762
31	0x3dc93d50	0.098261476
32	0x3c3f0c56	0.011660656
33	0xbe30f8da	-0.1728243
34	0xbca79e51	-0.020461233
35	0xbdf36668	-0.11884767
36	0x3dc2ca00	0.09511185
37	0x3dfae4e0	0.12250686
38	0x3c80d05e	0.015724357
39	0xbe15817c	-0.14600176
40	0xbd690fa6	-0.05689969
41	0xbd7cec8f	-0.061749037
42	0x3da56b5d	0.080771185
43	0x3dd9f792	0.106429234
44	0x3de20f80	0.11038113
45	0xbd65d6f4	-0.0561132
46	0x3d8ed754	0.06974664
47	0xbd31a1c5	-0.043367166
48	0x3c5d027d	0.013489363
49	0x3b04dd21	0.0020273405
50	0xbe0eadae	-0.13933441
51	0x3d2e146c	0.042499945
52	0x3b916e6b	0.0044382117
53	0xbcbec3e8	-0.023286775
54	0xbe2e2eda	-0.1701006
55	0xbdf4df31	-0.11956633
56	0x3e1b9944	0.15195185
57	0xbe2cd8e5	-0.16879614
58	0xbd9b1a3e	-0.07573365
59	0xbda16ab2	-0.07881679
60	0x3ddb8dd5	0.10720412
61	0xbd12073f	-0.03565144
62	0xbe108aa1	-0.14115383
63	0x3e067140	0.13129139
64	0x3e1f0e4d	0.15532799
65	0x3cddb97e	0.027065989
66	0xbe105ba8	-0.14097464
67	0x3dc4fc3e	0.09618424
68	0x3d9d7cc9	0.076898165
69	0x3ccc8297	0.024964614
70	0xbc917815	-0.017757455
71	0x3d064077	0.032776322
72	0xbe094435	-0.13404925
73	0x3e043558	0.12910974
74	0xbbaf84d2	-0.0053564096
75	0xbe23802f	-0.15966867
76	0x3e119122	0.1421552
77	0xbd83c794	-0.06434551
78	0x3c6ca6e8	0.01444409
79	0x3d9f920c	0.07791528
80	0x3d21a458	0.03946337
81	0x3e0bb097	0.13641582
82	0xbe239ee8	-0.15978587
83	0x3d54d018	0.051956266
84	0x3a55236f	0.0008130585
85	0xbbf81c2b	-0.0075717173
86	0xbdd45b9e	-0.10369037
87	0xbde84b94	-0.113425404
88	0x3d85fc02	0.06542207
89	0x3c540dd5	0.012942751
90	0x3bc7c3c4	0.006096335
91	0x3dce26f4	0.100660235
92	0x3ccef232	0.025261972
93	0x3c48b220	0.0122495
94	0x3de6ac14	0.1126329
95	0xbaa5c0e4	-0.0012645987
96	0x3e25a31a	0.161755
97	0xbe123c64	-0.1428085
98	0x3da0dd0d	0.07854662
99	0x3d36ec0b	0.044658702
100	0x3c944ce1	0.018103065
101	0xbd51dd19	-0.051236246
102	0xbd0a1a1a	-0.0337163
103	0x3d554404	0.052066818
104	0x3c6b2f7e	0.014354585
105	0xbe0fb049	-0.14032091
106	0xbe1ce213	-0.15320615
107	0xbdb246d7	-0.08704918
108	0xbe2e870b	-0.17043702
109	0xbd6f5ab3	-0.058436107
110	0x3d391010	0.045181334
111	0xbdd04050	-0.10168517
112	0x3ce73b4a	0.028226513
113	0x3e2828ad	0.16421767
114	0xbdaadcb7	-0.08342879
115	0x3e22b3aa	0.15888849
116	0xbc0bc160	-0.008529991
117	0xbe2dadd2	-0.16960838
118	0xbd3c3f02	-0.045958526
119	0x3cfe025b	0.031006983
120	0x3e0c1f48	0.13683808
121	0xbd690203	-0.056886684
122	0xbdfa4d0d	-0.122217275
123	0x3e19d6ba	0.15023318
124	0x3cf91b0e	0.030408408
125	0xbd47f946	-0.04882171
126	0xbda20e4d	-0.07912884
127	0x3d93ca88	0.07216364
128	0x3e15739e	0.14594886
129	0xbc2a4050	-0.01039131
130	0x3d071f45	0.032988805
131	0x3d253480	0.04033327
132	0xbcc8e9a0	-0.024525464
133	0x3db46b86	0.08809571
134	0x3e2873f4	0.16450483
135	0x3da8a382	0.08234312
136	0x3e10843c	0.14112943
137	0x3d541095	0.051773626
138	0xbd050fce	-0.032485776
139	0x3d4eb9f8	0.050470322
140	0xbdcbc1da	-0.099490836
141	0xbd63ebd1	-0.055644814
142	0x3d07c700	0.033148766
143	0x3d6495b4	0.05580683
144	0xbe0ce55c	-0.13759369
145	0x3d320502	0.043461807
146	0x3dc96fc3	0.0983577
147	0xbe0d89f5	-0.13822158
148	0x3d852e62	0.065029874
149	0xbd478407	-0.048709895
150	0x3deb71f7	0.114963464
151	0x3e2ccbd7	0.16874634
152	0x3db2ea4c	0.08736095
153	0xbe0b7e6b	-0.13622443
154	0x3d7700e3	0.06030358
155	0xbdafff44	-0.0859361
156	0x3e00af7a	0.12566939
157	0x3d7197ac	0.058982536
158	0x3d9cc89e	0.07655452
159	0xbe04ae1b	-0.12957041
160	0xbe2f7a6e	-0.17136547
161	0xbde0503b	-0.10952803
162	0x3e2328d7	0.15933548
163	0x3da7c7f0	0.08192432
164	0x3d3e54ab	0.046467464
165	0xbe0e8da2	-0.13921216
166	0xbd541656	-0.051779114
167	0x3bee2ec6	0.0072687594
168	0xbcd5a5d2	-0.026080046
169	0x3e2386bd	0.15969367
170	0xbe2c5d28	-0.16832411
171	0xbd0229d9	-0.03177819
172	0x3deed38c	0.11661443
173	0x3de5e421	0.11225153
174	0xbe07a99e	-0.13248298
175	0x3da53051	0.08065856
176	0xbc6936ad	-0.014234227
177	0xbde4c5ed	-0.11170564
178	0xbc7a2025	-0.015266453
179	0xbe0604c3	-0.13087754
180	0xbd563af4	-0.052302316
181	0x3e31aafd	0.17350383
182	0xbe15e5dc	-0.14638466
183	0xbe104bf2	-0.14091471
184	0x3dcc3921	0.09971834
185	0x3dd47a29	0.10374863
186	0xbde56b8a	-0.11202152
187	0xbd3a5be2	-0.045497783
188	0xbb0c9221	-0.0021449404
189	0xbe113140	-0.14178944
190	0x3c41cd06	0.011828667
191	0xbd611146	-0.054948114
192	0xbd5fb839	-0.054619048
193	0x3d7b388d	0.061333228
194	0xbdb012d9	-0.08597345
195	0x3c765c72	0.015036689
196	0x3e215ca7	0.15758
197	0x3e065939	0.13119973
198	0x3df01c2c	0.11724123
199	0x3e15af30	0.1461761
200	0xbd84aa3a	-0.06477781
201	0x3e20cf69	0.1570412
202	0xbe259ccc	-0.16173095
203	0x3e290856	0.16507086
204	0x3e310e92	0.17290714
205	0x3db709db	0.08937427
206	0x3c0eb4f6	0.008710137
207	0x3d3a3b12	0.04546649
208	0xbdb0c0eb	-0.08630546
209	0xbdd80d13	-0.10549369
210	0xbde5ed5e	-0.11226915
211	0x3dcc183e	0.09965561
212	0xbe0df1c0	-0.13861752
213	0x3c77e631	0.0151305655
214	0x3d74e7ca	0.059791364
215	0xbe0464b3	-0.12929039
216	0xbe021a81	-0.12705423
217	0x3b1514c1	0.0022747966
218	0xbe16de77	-0.14733301
219	0x3cb82f2a	0.022483427
220	0xbdf8b602	-0.1214409
221	0xbde80480	-0.11328983
222	0xbd9f79a7	-0.07786875
223	0x3d269e0b	0.040678065
224	0xbd5170b3	-0.05113287
225	0xbe2101f1	-0.15723397
226	0xbd9d2b03	-0.076742195
227	0xbd57342d	-0.052539993
228	0x3e0d4ff3	0.1380003
229	0x3e04b943	0.12961297
230	0x3c4f26f0	0.012643561
231	0x3d8bf539	0.06833882
232	0xbe309421	-0.17244007
233	0xbc5b7b3f	-0.013396083
234	0x3db33460	0.08750224
235	0x3d80ccd2	0.062890664
236	0xbda7f325	-0.08200673
237	0x3dea3c45	0.11437277
238	0x3d8203f2	0.06348409
239	0xbde3c04b	-0.11120661
240	0x3d32c7ae	0.04364746
241	0xbe0e2b9c	-0.13883823
242	0x3de0b661	0.10972286
243	0x3df215a9	0.118205376
244	0xbb5eb9da	-0.0033985288
245	0x3d8a3d7c	0.067500085
246	0xbdc69bc4	-0.09697679
247	0xbdaf9017	-0.08572405
248	0xbd072ff3	-0.033004712
249	0xbdf5c583	-0.12000563
250	0xbcf81902	-0.030285362
251	0xbabb8a88	-0.0014308253
252	0xbd93ad65	-0.07210807
253	0x3de1d07d	0.11026094
254	0x3d69b0c8	0.057053357
255	0x3dc45e81	0.09588338

batch_norm.weight f4 [400]
0	0x3ef0aeee	0.4700846
1	0x3e9d872a	0.30767184
2	0x3ea97c07	0.33102438
3	0x3e79805c	0.24365371
4	0x3ea8a95c	0.3294171
5	0x3eafaf43	0.34313402
6	0x3f210f93	0.6291439
7	0x3e9b1123	0.30286512
8	0x3e9e276c	0.30889452
9	0x3e96dab5	0.29463735
10	0x3f11414c	0.5674026
11	0x3e97e00d	0.29663125
12	0x3e77ffd3	0.24218683
13	0x3dc23f58	0.09484738
14	0x3f0fc6c0	0.56162643
15	0x3f2264be	0.6343497
16	0x3e71e9a4	0.23624283
17	0x3bbe837e	0.005814015
18	0x3f34e3ad	0.70659906
19	0x3f2389e3	0.63882273
20	0x3e5bb691	0.21456362
21	0x3e50521a	0.2034382
22	0x3f2140e1	0.6298962
23	0x3eecd4eb	0.46256194
24	0x3e861cbf	0.26193807
25	0x3ea517d8	0.32244754
26	0x3f2ba505	0.67048675
27	0x3f0f97a6	0.5609077
28	0x3eadde9f	0.3395891
29	0x3e739ca3	0.23790221
30	0x3f0cffee	0.5507802
31	0x3e5f8591	0.21828295
32	0x3f179ae1	0.592207
33	0x3e8682fb	0.26271805
34	0x3e7cd6bc	0.2469129
35	0x3eab9240	0.33510017
36	0x3f417392	0.7556697
37	0x3eeba628	0.46025205
38	0x3e9a3d10	0.30124712
39	0x3eafa22d	0.34303418
40	0x3e61e3a9	0.22059502
41	0x3ef54f06	0.47911853
42	0x3ede7d68	0.43455052
43	0x3e52fafa	0.20603552
44	0x3e49b575	0.19698127
45	0x3ed55ba0	0.41671467
46	0x3ac00d84	0.0014652465
47	0x3ebcd677	0.36882374
48	0x3eaed5e4	0.3414756
49	0x3ef1abce	0.4720139
50	0x3ee168a5	0.4402515
51	0x3ee49dda	0.4465168
52	0x3ea3fdf0	0.32029676
53	0x3f1eab61	0.61980253
54	0x3f129185	0.57253295
55	0x3ebd4b1a	0.3697136
56	0x3e87af83	0.26501092
57	0x3f00cb06	0.5030979
58	0x3eb4f0a1	0.35339835
59	0x3e44ebac	0.19230527
60	0x3ea3301d	0.31872645
61	0x3e2f9278	0.17145717
62	0x3eb7a7a2	0.3587008
63	0x3ec7256e	0.38895744
64	0x3eb1cd2b	0.34726843
65	0x3ea5bdcc	0.32371366
66	0x3f1329be	0.5748557
67	0x3f43ff55	0.7656148
68	0x3e801b59	0.25020865
69	0x3e0931ee	0.13397953
70	0x3eb79929	0.3585904
71	0x3f2ba594	0.6704953
72	0x3f078e7b	0.5295178
73	0x3e249e00	0.16075897
74	0x3eacd8fc	0.33759296
75	0x3df55c7a	0.11980529
76	0x3f183a28	0.5946374
77	0x3e91590f	0.2838826
78	0x3e2fe614	0.17177612
79	0x3c3e5b80	0.011618495
80	0x3f092ce0	0.535841
81	0x3ee17732	0.4403625
82	0x3eacb45f	0.33731362
83	0x3f4a57a6	0.7903999
84	0x3f16ce8f	0.58908933
85	0x3e0ec04c	0.13940543
86	0x3e700e6c	0.23443002
87	0x3e5293d3	0.20564203
88	0x3f2805a5	0.6563361
89	0x3f0bff97	0.54686874
90	0x3e8cf378	0.27529502
91	0x3eb98346	0.36232966
92	0x3ee86dfd	0.45396414
93	0x3ed1d351	0.40981534
94	0x38db4277	0.00010455114
95	0x3eca6525	0.39530292
96	0x3f1ee478	0.62067366
97	0x3f0d8fab	0.55297345
98	0x3efd3cf3	0.49460563
99	0x3e8ef784	0.27923214
100	0x3e738b71	0.23783661
101	0x3e9a10c7	0.30090925
102	0x3f473b32	0.778247
103	0x3e539596	0.20662531
104	0x3eaf3184	0.34217465
105	0x3ea41019	0.32043532
106	0x3eb99c43	0.3625203
107	0x3dd1d711	0.10246099
108	0x3ed0574b	0.406916
109	0x3edcb8f1	0.4310985
110	0x3ef3ea9b	0.47639927
111	0x3e9c1188	0.30482125
112	0x3f0ebf2e	0.5576047
113	0x3ee54436	0.44778603
114	0x3e4ee01a	0.20202675
115	0x3f071e54	0.5278065
116	0x3f3d1ca1	0.7387181
117	0x3e97aadc	0.29622543
118	0x3ecf925e	0.40541357
119	0x3f089591	0.5335322
120	0x3f1808a6	0.59388196
121	0x3e85ff32	0.2617126
122	0x3f0d5f54	0.55223584
123	0x3f33ec5c	0.7028253
124	0x3f0af404	0.5427859
125	0x3dc55c6e	0.0963677
126	0x3f06e152	0.5268756
127	0x3f27c6b6	0.65537584
128	0x3ec209d5	0.37898126
129	0x3f1ec4fd	0.6201933
130	0x3e4bed82	0.19914821
131	0x3a770e42	0.0009424427
132	0x3ec03ca5	0.37546268
133	0x3eb076ef	0.3446574
134	0x3e62f0fc	0.2216224
135	0x3f1427db	0.57873315
136	0x3f11bd4d	0.56929475
137	0x3e32087d	0.1738605
138	0x3ec07e69	0.37596443
139	0x3e940622	0.2891093
140	0x3e8335c2	0.2562695
141	0x3e3cdb27	0.18442975
142	0x3e65202a	0.22375551
143	0x3f1aa828	0.60412836
144	0x3f0b8c0c	0.5451057
145	0x3eb8f660	0.3612547
146	0x3eadcc83	0.33945093
147	0x3e70a854	0.23501712
148	0x3e9c3e5d	0.3051633
149	0x3f0c03e9	0.54693466
150	0x3ee194c2	0.44058806
151	0x3ed03722	0.40667063
152	0x3e32e968	0.1747185
153	0x3d606fb8	0.054794043
154	0x3f1fc4f3	0.62409896
155	0x3e775ca3	0.24156432
156	0x3f1238a9	0.57117707
157	0x3f0bcdf2	0.5461112
158	0x3eee7a26	0.46577567
159	0x3e8fef26	0.28112143
160	0x3f0365e1	0.5132733
161	0x3f0f086a	0.55872214
162	0x3f08d442	0.5344888
163	0x3bb54460	0.0055318326
164	0x3f0c4c2d	0.54803735
165	0x3dee70fc	0.11642644
166	0x3ebfdeb5	0.374746
167	0x3eee3afe	0.46529382
168	0x3f0dff98	0.5546813
169	0x3ec7fb9e	0.39059156
170	0x3eed0cef	0.4629893
171	0x3e9a602e	0.30151504
172	0x3ea0adb8	0.31382537
173	0x3e71b35d	0.23603578
174	0x3eae0715	0.33989778
175	0x3f04cc52	0.5187427
176	0x3f29409f	0.6611423
177	0x3ec330b6	0.381231
178	0x3e78133e	0.2422609
179	0x3e2c0de8	0.1680218
180	0x3e3b6246	0.18299207
181	0x3ebab3b3	0.36465225
182	0x3ec97333	0.39345703
183	0x3ece04de	0.40238088
184	0x3e7ca5bc	0.24672598
185	0x3ebcaf0c	0.368523
186	0x3ee7b7d1	0.45257428
187	0x3e803b41	0.25045207
188	0x3f573cf4	0.8407738
189	0x3e5c01a0	0.21484995
190	0x3e9464b1	0.2898307
191	0x3d3453bc	0.044025168
192	0x3e9f9196	0.3116576
193	0x3ec711bf	0.38880727
194	0x3edc23b6	0.42995995
195	0x3e4fa0e0	0.20276213
196	0x3f0dfcbe	0.5546378
197	0x3e9f76c1	0.3114529
198	0x3f02d909	0.5111242
199	0x3edaaad9	0.4270847
200	0x3e5b7ac6	0.21433553
201	0x3ebd6515	0.36991182
202	0x3ebdaaf7	0.37044498
203	0x3f09dae5	0.5384963
204	0x3f255c5d	0.6459406
205	0x3e717fb4	0.23583871
206	0x3ed353ef	0.41274974
207	0x3ec3e1c2	0.38258177
208	0x3ec97579	0.39347437
209	0x3f0f6a89	0.56021935
210	0x3e1495ad	0.14510222
211	0x3ed94a4e	0.42439502
212	0x3e64594c	0.22299689
213	0x3e0f90b4	0.14020044
214	0x3eb4ea5f	0.3533506
215	0x3f12153d	0.5706366
216	0x3eca82b7	0.39552853
217	0x3f17b9fd	0.5926817
218	0x3ed122d6	0.4084689
219	0x3e64828f	0.22315429
220	0x3f19626c	0.59915805
221	0x3f21b47a	0.6316601
222	0x3ece91ad	0.40345517
223	0x3f29d343	0.66337985
224	0x3f011e3d	0.50436765
225	0x3ef4a691	0.4778333
226	0x3e92e941	0.28693584
227	0x3ed38d15	0.41318575
228	0x3ee95950	0.45575953
229	0x3f17fdc6	0.593716
230	0xb921999c	-0.0001541138
231	0x3ec166f2	0.37773854
232	0x3eaf918c	0.3429073
233	0x3ed377e4	0.41302407
234	0x3ed4df74	0.4157673
235	0x3e734e95	0.23760445
236	0x3ecc469f	0.3989763
237	0x3e75bd1f	0.23997925
238	0x3e973d97	0.29539177
239	0x3ead0b67	0.33797762
240	0x3f1df38c	0.6169975
241	0x3f21416e	0.6299046
242	0x3ecd725f	0.4012632
243	0x3ec3d0a7	0.38245127
244	0x3ec9031f	0.39260194
245	0x3f20129f	0.62528414
246	0x3ecd3868	0.40082097
247	0x3ec45168	0.38343358
248	0x3eaa6b59	0.33285025
249	0x3e34e1c7	0.17664252
250	0x3ddc59cd	0.10759316
251	0x3f36b99a	0.71376956
252	0x3f5a5ceb	0.8529803
253	0x3edf3dae	0.43601745
254	0x3f0a7bfb	0.5409543
255	0x3e6f8e78	0.23394191

batch_norm.bias f4 [400]
0	0xbf86e6a1	-1.0539132
1	0xbf480c65	-0.7814391
2	0xbecbb489	-0.39786175
3	0xbedd394a	-0.4320777
4	0xbf9c9c40	-1.2235184
5	0xbd8cfe3b	-0.06884428
6	0xbf06ea03	-0.52700824
7	0xbf01dd1b	-0.50728005
8	0xbddd04bd	-0.107919194
9	0xbe39bd5b	-0.1813864
10	0xbf2cd248	-0.67508364
11	0xbebeee91	-0.37291387
12	0xbe40ef94	-0.18841392
13	0x3ddfda24	0.10930279
14	0xbfd76f40	-1.6830826
15	0xbf4ed378	-0.80791426
16	0xbe61ba01	-0.22043611
17	0xbd9ced5c	-0.0766246
18	0xbf9cc1ab	-1.2246603
19	0xbf8fce44	-1.1234822
20	0xbeac8e5a	-0.33702356
21	0xbd988db9	-0.074489065
22	0xbf689c1f	-0.9086322
23	0xbfac0920	-1.3440285
24	0xbf1fc88b	-0.6241538
25	0xbe875cc4	-0.26437962
26	0xbf8c722b	-1.0972341
27	0xbf68bf6b	-0.9091708
28	0xbf0009be	-0.50014865
29	0xbe2963ae	-0.16541931
30	0xbfa43b42	-1.2830584
31	0xbf192d40	-0.5983467
32	0xbf22b5f4	-0.6355889
33	0xbe917e3e	-0.28416628
34	0xbfa37104	-1.2768865
35	0xbf1095fc	-0.5647886
36	0xbfd36641	-1.651558
37	0xbf221d70	-0.6332617
38	0xbee32fff	-0.44372556
39	0xbfc986ed	-1.5744301
40	0xbf859c48	-1.0438318
41	0xbf2c0e0a	-0.6720892
42	0xbf219a4d	-0.6312607
43	0x3e6ef6fb	0.23336403
44	0xbe63d773	-0.22250156
45	0xbf6d407e	-0.9267653
46	0xbc0d9856	-0.008642277
47	0xbf2ee3b9	-0.6831623
48	0xbf231a5e	-0.6371211
49	0xbf7ed59a	-0.9954468
50	0xbefc3ce0	-0.49265194
51	0xbf8a09fa	-1.0784295
52	0xbed922f1	-0.4240947
53	0xbf7fc01c	-0.9990251
54	0xbf5802bd	-0.8437918
55	0xbeffe415	-0.499787
56	0xbfa19d87	-1.2626199
57	0xbf8738bb	-1.0564188
58	0x3d92256a	0.071360424
59	0xbf46e9a9	-0.7770029
60	0x3b629d8b	0.0034578766
61	0xbe2582b9	-0.16163148
62	0xbf436bc0	-0.7633629
63	0xbf5ddb3b	-0.86662644
64	0xbd70dc83	-0.058804046
65	0xbf86cc6a	-1.0531132
66	0xbf439456	-0.7639822
67	0xbf864c3e	-1.0492017
68	0xbf93d35a	-1.1548874
69	0xbf65a599	-0.89705807
70	0x3d01fbfd	0.031734455
71	0xbebf3c2d	-0.37350598
72	0xbf1312b0	-0.5745039
73	0xbe075704	-0.13216788
74	0xbf12d1b5	-0.5735124
75	0x3d41bd57	0.04729971
76	0xbf493267	-0.7859253
77	0xbeedc122	-0.4643641
78	0xbf4aa717	-0.7916121
79	0xbd92a955	-0.07161204
80	0xbe3c08a9	-0.18362679
81	0xbf0e789a	-0.55652773
82	0xbe9eb338	-0.30996108
83	0xbd8f3051	-0.069916375
84	0xbf48e2b5	-0.7847093
85	0xbd9de29d	-0.07709239
86	0xbe313bfd	-0.1730804
87	0xbf94530a	-1.1587842
88	0xbe9d68fb	-0.30744156
89	0xbf0a5584	-0.54036736
90	0xbf1c2d25	-0.61006385
91	0xbeae0b50	-0.33993006
92	0xbf8914ce	-1.0709474
93	0xbf347d0e	-0.7050332
94	0xbb35c196	-0.0027733794
95	0xbf475bd9	-0.77874523
96	0xbf7a0a85	-0.976723
97	0xbf852833	-1.0402893
98	0xbf0ba4c3	-0.5454828
99	0xbf07619a	-0.52883303
100	0xbe7a32ed	-0.24433489
101	0xbe977b99	-0.29586485
102	0xbfb7d8e6	-1.4363067
103	0x3e205426	0.156571
104	0xbf003176	-0.5007547
105	0xbf95df18	-1.1708708
106	0xbf258eff	-0.6467132
107	0xbf50d071	-0.81568056
108	0xbedde6ae	-0.43340057
109	0xbf59b0bf	-0.8503532
110	0xbf2a3635	-0.66488963
111	0xbe48d7c9	-0.19613566
112	0xbf8acbcf	-1.0843447
113	0xbf3c2c7f	-0.73505396
114	0xbf7807bb	-0.96886796
115	0xbf0c0e33	-0.54709166
116	0xbfa7a976	-1.309859
117	0xbee90037	-0.45507976
118	0xbf7ff5b5	-0.99984294
119	0xbf867b68	-1.0506411
120	0xbf7773a7	-0.96660846
121	0xbfadb355	-1.3570353
122	0xbf888349	-1.0665065
123	0xbe20bee4	-0.15697819
124	0xbf46bd64	-0.7763274
125	0xbf22d8b6	-0.63611925
126	0xbf45be8d	-0.7724388
127	0xbfabdbd3	-1.342646
128	0xbec3ad1b	-0.38218006
129	0xbf8fb42e	-1.1226861
130	0xbd4522d0	-0.048128903
131	0xbbd98255	-0.0066378512
132	0xbf113aef	-0.5673055
133	0xbdd86a00	-0.10567093
134	0xbbce67d8	-0.0062990002
135	0xbfabc1c6	-1.341851
136	0xbfab478b	-1.3381208
137	0xbdbe8d09	-0.09304244
138	0xbf3a1f8e	-0.727044
139	0xbf3eb6e9	-0.7449785
140	0xbf1396b3	-0.57651824
141	0x3e2deadc	0.16984123
142	0xbd8296dd	-0.06376431
143	0xbec0a376	-0.3762471
144	0xbfa4dada	-1.2879288
145	0xbfa4c378	-1.2872152
146	0xbe4e773d	-0.20162673
147	0xbf06d8c0	-0.52674484
148	0xbd343cfc	-0.04400347
149	0xbf7e844d	-0.99420625
150	0xbf71ef72	-0.9450599
151	0xbfc4cdc6	-1.5375297
152	0xbe8fb9bb	-0.2807139
153	0x3d349886	0.04409077
154	0xbf83fd68	-1.0311708
155	0xbf382e6a	-0.7194582
156	0xbf0ed3ee	-0.5579213
157	0xbf78ce3d	-0.97189695
158	0xbf9bc778	-1.2170248
159	0xbef1e50a	-0.47245055
160	0xbf7464fb	-0.95466584
161	0xbf9ee2ae	-1.2412927
162	0xbecea010	-0.40356493
163	0xbe06ef81	-0.13177301
164	0xbf9fbb0a	-1.2478955
165	0x3cbbb5da	0.022913862
166	0xbf5e938b	-0.8694388
167	0xbfcb62a1	-1.5889474
168	0xbf82dedd	-1.0224262
169	0xbf12de6d	-0.57370645
170	0xbf458d31	-0.77168566
171	0xbf52f1cb	-0.82400197
172	0xbea6a642	-0.3254872
173	0xbe8c68b1	-0.27423623
174	0xbf26dd73	-0.65181655
175	0xbf24b7f9	-0.6434322
176	0xbf907c72	-1.1287978
177	0xbf58cf82	-0.8469163
178	0xbf89cdd9	-1.0765945
179	0x3e580bff	0.21098326
180	0x3e74ed46	0.23918638
181	0xbe982bdd	-0.29720965
182	0xbf31b903	-0.6942293
183	0xbee7fe5a	-0.45311242
184	0xbeadb8ab	-0.33929953
185	0xbeb43e93	-0.3520399
186	0xbf79582d	-0.9740017
187	0xbe7d3444	-0.24726969
188	0xbf065a0f	-0.5248117
189	0xbea9fd92	-0.3320127
190	0xbeeda65a	-0.4641598
191	0xbe457333	-0.19282226
192	0xbd115fca	-0.035491742
193	0xbec1c87a	-0.37848264
194	0xbf50325f	-0.8132686
195	0xbef8691f	-0.485177
196	0xbf527c24	-0.82220674
197	0xbed023a3	-0.4065219
198	0xbf2de89e	-0.6793307
199	0xbf395632	-0.7239715
200	0xbe0ef23b	-0.13959591
201	0xbee27a4a	-0.44233924
202	0xbf0d2514	-0.551347
203	0xbf812eb2	-1.0092375
204	0xbfc73a4f	-1.5564669
205	0xbe31af02	-0.17351916
206	0xbec99687	-0.39372656
207	0xbe0f5d4a	-0.1400043
208	0xbe4cb47e	-0.19990727
209	0xbf5f86f9	-0.87315327
210	0x3dafc2ac	0.085820526
211	0xbf286d5c	-0.6579187
212	0x3ce665de	0.028124746
213	0x3ee12d3d	0.43979827
214	0xbf6ee922	-0.9332448
215	0xbf2748d6	-0.65345514
216	0xbe6bb248	-0.23017228
217	0xbf891a1d	-1.0711094
218	0xbf62d4e3	-0.8860609
219	0xbe644c88	-0.2229482
220	0xbf4b1df5	-0.79342586
221	0xbf5dd8e1	-0.86659056
222	0xbed6f452	-0.41983277
223	0xbf84dd94	-1.038012
224	0xbf4e0d19	-0.80488735
225	0xbf6bf8c9	-0.9217649
226	0xbf30d475	-0.69074184
227	0xbf2f2636	-0.6841768
228	0xbf4f12d2	-0.8088809
229	0xbf83cc9a	-1.0296814
230	0xbb8a6680	-0.0042236447
231	0xbf280fcb	-0.656491
232	0xbfa0dfb4	-1.2568269
233	0xbf6c1db8	-0.9223285
234	0xbe8901a3	-0.2675906
235	0xbf95b292	-1.169512
236	0xbf685905	-0.90760833
237	0xbee1c634	-0.4409653
238	0xbde41cc2	-0.111382976
239	0xbf161eec	-0.58640933
240	0xbf8632dc	-1.0484271
241	0xbf70599e	-0.93886745
242	0xbf5a0417	-0.8516249
243	0xbe5900ef	-0.21191762
244	0xbf39b7c7	-0.72546047
245	0xbf9c2259	-1.2197982
246	0xbf2ceae1	-0.67545897
247	0xbf64eb30	-0.8942137
248	0xbec20dfc	-0.37901294
249	0xbf80c9eb	-1.006162
250	0xbf37ec3b	-0.71844834
251	0xbf98caef	-1.193693
252	0x3bfbd844	0.007685693
253	0xbf42d6b9	-0.7610889
254	0xbfb74c1d	-1.4320103
255	0xbe202bd7	-0.15641724

batch_norm.running_mean f4 [400]
0	0xbe6c6aa4	-0.23087555
1	0xbed8e556	-0.4236247
2	0xbf4aec4a	-0.792668
3	0xc066ffb9	-3.609358
4	0xbfe90278	-1.8203878
5	0x3f8201e4	1.0156827
6	0xc00440c9	-2.0664542
7	0xc096abe8	-4.7084846
8	0x3f802769	1.0012027
9	0x410086a1	8.032868
10	0x3fec0eef	1.8442057
11	0xbfd20b4a	-1.6409695
12	0xc085b1ae	-4.1779394
13	0x40ffa51b	7.9889045
14	0x3e321498	0.17390668
15	0xc02c8310	-2.6954994
16	0xc044d36a	-3.0754037
17	0xbe55eb86	-0.20890626
18	0xc0667653	-3.600972
19	0xc0c16899	-6.0440183
20	0xc0b10403	-5.5317397
21	0x3f374ab5	0.7159837
22	0x40162db2	2.346539
23	0xc0d90073	-6.781305
24	0x41031960	8.193695
25	0xc03be94f	-2.936115
26	0xc062926a	-3.5401864
27	0xc0c09c30	-6.019066
28	0x3f00df87	0.50341076
29	0xbfea2a8c	-1.8294234
30	0xc0826945	-4.0753503
31	0xc0de270d	-6.942267
32	0xbffaac73	-1.9583877
33	0x401b7415	2.42896
34	0xc04137d7	-3.0190332
35	0x40f9074d	7.782141
36	0xc0d326d6	-6.5984907
37	0xc0c8f85f	-6.2803187
38	0x4011ed0d	2.2800934
39	0xc07d69ac	-3.9595747
40	0x4001be94	2.027257
41	0xbfbdb105	-1.4819647
42	0xc0612343	-3.5177772
43	0x403368f3	2.8032806
44	0x407c6716	3.9437919
45	0xc0f3b218	-7.61549
46	0x3e77787b	0.24167053
47	0x40d5c1c4	6.679903
48	0xbfa95385	-1.3228613
49	0xbfe2c448	-1.771615
50	0x3f359425	0.70929176
51	0xc11cd3bd	-9.801694
52	0x3fdbba8f	1.7166308
53	0xbf70f04f	-0.9411668
54	0xbe842197	-0.25806877
55	0x3fe2e181	1.7725068
56	0xc03c18f8	-2.939024
57	0xc09168dd	-4.5440507
58	0x402e13dd	2.7199624
59	0xbfd8963d	-1.6920849
60	0xbe943333	-0.28945312
61	0xc0e3ee02	-7.1228037
62	0x4068ffc2	3.6406102
63	0xc1021f45	-8.132634
64	0x4050cf44	3.2626505
65	0x3db2ac54	0.08724275
66	0xc0c004ad	-6.000571
67	0xbfff7525	-1.9957625
68	0xc03ac712	-2.9184003
69	0xc0098e55	-2.1493123
70	0xc0648c68	-3.5710697
71	0xbe197ecd	-0.14989777
72	0xbeaf2ea3	-0.34215268
73	0xc02730a9	-2.612345
74	0xbfb71910	-1.4304523
75	0x3f9e6840	1.2375565
76	0x401125f2	2.267941
77	0x3ea6e7a2	0.32598597
78	0xbf957ce4	-1.1678739
79	0x3ed79f21	0.42113593
80	0x40274bcf	2.614002
81	0xc0a4f92f	-5.155418
82	0xbe4e8e96	-0.2017158
83	0x3dc1596a	0.094408825
84	0xc069e221	-3.6544268
85	0xbfa5ace1	-1.2943383
86	0x3f936953	1.1516517
87	0x411347e9	9.205056
88	0xc0061b29	-2.0954077
89	0x3f17adaf	0.59249395
90	0xc0a2c567	-5.086597
91	0x3f7fbe4b	0.9989974
92	0xc097167d	-4.721495
93	0xc0a88967	-5.2667727
94	0x3e61e16a	0.22058645
95	0xbeea0d28	-0.45713162
96	0xc08a6545	-4.324862
97	0xbfae0486	-1.359513
98	0x3ffb566f	1.9635752
99	0xc0916481	-4.5435185
100	0xc01f18b0	-2.4858818
101	0xbfc2b11a	-1.5210297
102	0xc09f0744	-4.969637
103	0x410b42ae	8.703779
104	0xc0f291f2	-7.5803156
105	0xc128b610	-10.544449
106	0xbfd709bd	-1.6799847
107	0xc0bf7e8d	-5.984198
108	0xc0899349	-4.299229
109	0xc083143a	-4.096219
110	0x3fddac88	1.7318277
111	0x3c52c37a	0.012863988
112	0xc0b6b0fd	-5.709105
113	0xbfd5bf3e	-1.6698987
114	0x401c1413	2.4387252
115	0xbfe357d6	-1.776118
116	0xbff8b6e4	-1.9430814
117	0x40aaf962	5.342942
118	0xc0878df7	-4.2360797
119	0x3fac7d66	1.3475769
120	0xc0a5b9e9	-5.178944
121	0x3f3aee11	0.7301951
122	0xc08879d4	-4.2648716
123	0x3f14c162	0.5810758
124	0xbfffe2db	-1.9991106
125	0xc101c6da	-8.111048
126	0x4096a91e	4.708144
127	0xc084a51f	-4.1451564
128	0xbf976ff1	-1.1831037
129	0xc0c5fa3f	-6.1867976
130	0xc086385f	-4.194381
131	0xbde2b43c	-0.11069533
132	0xc0016e00	-2.0223389
133	0x402311ce	2.5479617
134	0xbdadd5b4	-0.08488026
135	0xc10770c7	-8.465034
136	0xc0af6cdc	-5.4820385
137	0xc0a74a46	-5.2278166
138	0xc0197292	-2.3976178
139	0xc0c96210	-6.2932205
140	0xbed72dac	-0.42027032
141	0x4106105c	8.378994
142	0x40f15225	7.5412774
143	0xbfeb084d	-1.8361908
144	0xc0a8eba9	-5.278767
145	0x3c9c76a6	0.019099545
146	0x40ad9507	5.424442
147	0xc083e73a	-4.121976
148	0x40624a23	3.535775
149	0xc0fd055c	-7.906904
150	0xc0153af7	-2.331724
151	0xc03fa7e1	-2.9946215
152	0x41229780	10.161987
153	0x4080e8f8	4.0284386
154	0xc092f193	-4.591989
155	0x3f1a92a1	0.6037999
156	0xc03f9c8d	-2.99393
157	0xc10a8e95	-8.65981
158	0x3f9f80c4	1.2461171
159	0x4022804a	2.5390801
160	0xbff0e0b2	-1.8818572
161	0xc0b0113c	-5.502104
162	0x3e2c5caa	0.16832224
163	0x3ed28bf3	0.41122398
164	0xc00b5b9b	-2.1774662
165	0x401f2c65	2.4870846
166	0xbf9b31ca	-1.212457
167	0x4107a04b	8.476634
168	0xc0a84a79	-5.259091
169	0xbffca992	-1.9739249
170	0xc09a0df5	-4.8142037
171	0xc1118187	-9.094123
172	0xbf292bad	-0.6608227
173	0xc0975926	-4.7296324
174	0x40dcb140	6.896637
175	0x3fa6a758	1.3019819
176	0xc00eda46	-2.2320724
177	0xbe5a16a2	-0.21297696
178	0xc08f6003	-4.48047
179	0x40943c23	4.632341
180	0x40e68476	7.2036695
181	0x3f823470	1.0172253
182	0xc009aaa6	-2.1510406
183	0x4008c395	2.1369374
184	0x4105d91a	8.365503
185	0x409b4449	4.8520856
186	0xbf9fea0d	-1.2493302
187	0x3daf9889	0.08574016
188	0xc059337b	-3.393767
189	0xc0fdb087	-7.9277987
190	0x3ff5cc67	1.9203004
191	0xbf7082f6	-0.9394983
192	0x3ff0a2ee	1.8799722
193	0x3f3d768e	0.74009025
194	0xc00bc2cd	-2.1837647
195	0xc10ffa05	-8.99854
196	0xbf95d61b	-1.1705965
197	0xc0f6d184	-7.7130756
198	0xbf9b94e3	-1.2154812
199	0xc0e533c3	-7.1625686
200	0x401dcda2	2.4656758
201	0xc045f64c	-3.0931578
202	0xc066d7a8	-3.6069126
203	0xbf6a5e6c	-0.91550326
204	0xc095cdf2	-4.68139
205	0xc07d4964	-3.9576044
206	0x40235c50	2.5525093
207	0x40f22879	7.5674405
208	0x408ef9d7	4.467998
209	0xbed091b7	-0.40736172
210	0x3f8b99aa	1.090627
211	0xc08f2273	-4.472955
212	0x406e9892	3.7280622
213	0xbe90ad1d	-0.28257075
214	0xc15832ed	-13.512433
215	0xc02754fc	-2.614562
216	0xbe80acbf	-0.25131795
217	0xc0d743ee	-6.727042
218	0x3fa65f73	1.2997879
219	0xc0d0e4f4	-6.5279484
220	0xbd8cca37	-0.06874507
221	0xbfac3864	-1.3454709
222	0xbdff95b8	-0.124797285
223	0xc090445d	-4.508345
224	0xbfc2e3a1	-1.5225717
225	0xc0f15652	-7.541787
226	0xbf1fc240	-0.62405777
227	0xc09fb3c0	-4.990692
228	0x3f19dd65	0.60103446
229	0xc08e9a60	-4.4563446
230	0xbcee77a9	-0.029109793
231	0xc022f05a	-2.54592
232	0xbfe19e7d	-1.7626492
233	0x3f15abe9	0.5846544
234	0x3f9d5e64	1.2294431
235	0xc0def79a	-6.967725
236	0xbeffb69c	-0.49944007
237	0xbf35e131	-0.7104674
238	0xc02e3521	-2.7219927
239	0xc0af7cce	-5.483985
240	0xc07ac20b	-3.9180934
241	0xc06994f3	-3.6497161
242	0xbd0cd3eb	-0.03438179
243	0x3e4a6e68	0.19768679
244	0x40a3c34b	5.1175895
245	0xbf2143c7	-0.62994045
246	0xc0af3335	-5.475001
247	0xc0577d29	-3.3670142
248	0xbfced854	-1.6159768
249	0xc07c113f	-3.9385526
250	0xc0a05aca	-5.0110826
251	0xc09beea5	-4.8728814
252	0xbfb7e8bc	-1.43679
253	0xc03c300e	-2.940433
254	0xc071a89c	-3.775916
255	0x3eb70c6d	0.35751668

batch_norm.running_var f4 [400]
0	0x422d05f6	43.25582
1	0x41b27669	22.307817
2	0x420d62f9	35.346653
3	0x423d4c91	47.32477
4	0x4331d233	177.82109
5	0x4240f2bb	48.23704
6	0x4278b993	62.181225
7	0x429843c6	76.13237
8	0x42881fc8	68.06207
9	0x42013abd	32.30736
10	0x42345c8f	45.09039
11	0x4180d357	16.103193
12	0x421335c1	36.802494
13	0x41ad6d1f	21.678282
14	0x43592027	217.1256
15	0x427fa11a	63.907326
16	0x422f52db	43.830914
17	0x3e5a6d5f	0.21330784
18	0x42926399	73.19453
19	0x421883a7	38.128567
20	0x41e76b02	28.92725
21	0x40af5652	5.479287
22	0x42ba076c	93.014496
23	0x42ac9f94	86.311676
24	0x4238ccf2	46.20014
25	0x42acc9d6	86.39421
26	0x4210a1d9	36.158054
27	0x4256cd46	53.700462
28	0x435e524c	222.32147
29	0x420cbbc7	35.183376
30	0x42077b0a	33.870155
31	0x421b4414	38.816483
32	0x426f2df1	59.794865
33	0x43170186	151.00595
34	0x42f0fb74	120.49112
35	0x41df12f9	27.884264
36	0x4321f7b6	161.96762
37	0x42b1da3f	88.92626
38	0x4292544a	73.16463
39	0x431d1d59	157.11464
40	0x42cf327d	103.59861
41	0x42d76e5c	107.715546
42	0x425afe21	54.748173
43	0x418be540	17.486938
44	0x42060ae2	33.510628
45	0x429efa6c	79.489105
46	0x3e6f1844	0.233491
47	0x4205610f	33.344784
48	0x4296de4a	75.43416
49	0x43193852	153.22
50	0x42889953	68.29946
51	0x428ad7b8	69.421326
52	0x40f0fc05	7.530764
53	0x421c5e32	39.091988
54	0x4302852a	130.52017
55	0x4324ba5a	164.72794
56	0x4242ce45	48.701435
57	0x421cee6a	39.232826
58	0x428618be	67.048325
59	0x423637cd	45.554493
60	0x42a53501	82.60352
61	0x42a599d5	82.80045
62	0x431736eb	151.21452
63	0x42a39c71	81.80555
64	0x42da8ff9	109.2812
65	0x42979356	75.787766
66	0x41f34c82	30.412357
67	0x428b8e2e	69.777695
68	0x42cfc07e	103.87596
69	0x42ad2f92	86.59291
70	0x41b0bf66	22.093456
71	0x4259dbe0	54.46472
72	0x420515b2	33.271187
73	0x4335bd9a	181.74063
74	0x430cd07f	140.81444
75	0x4206ab3e	33.66723
76	0x41ab782b	21.433676
77	0x42fb4b32	125.646866
78	0x42922862	73.07887
79	0x3fb4a3a8	1.4112444
80	0x424892b6	50.143272
81	0x420e3e1d	35.560658
82	0x40c215b3	6.065149
83	0x4301735c	129.45062
84	0x4238aff6	46.171837
85	0x421a3088	38.547394
86	0x42a8d40b	84.41415
87	0x428a7e18	69.24628
88	0x4301ceb4	129.80743
89	0x41d0fd92	26.123814
90	0x4279d51f	62.458126
91	0x40bbd5f5	5.869868
92	0x420a2e29	34.54508
93	0x41ece329	29.610918
94	0x3dc8c355	0.09802882
95	0x4250cd8b	52.200726
96	0x424e6e44	51.60768
97	0x42116fb4	36.359085
98	0x42bd223f	94.56689
99	0x42d1f3c8	104.976135
100	0x41f75edb	30.921316
101	0x40ba8428	5.8286324
102	0x425148ba	52.321022
103	0x417652c1	15.395204
104	0x41e24dab	28.287924
105	0x42dba621	109.82447
106	0x4110e177	9.055045
107	0x4293349a	73.60274
108	0x4318eaeb	152.91765
109	0x4222d113	40.704174
110	0x42436139	48.844944
111	0x42a1cc6b	80.899254
112	0x42f5caae	122.89586
113	0x43185ab8	152.35437
114	0x428f8719	71.76386
115	0x4197a627	18.95613
116	0x429ccc62	78.399185
117	0x4317087c	151.03314
118	0x430e19b3	142.10039
119	0x42b61953	91.04946
120	0x42067861	33.617558
121	0x427b1b0b	62.77641
122	0x4302d6b5	130.8387
123	0x430af3d9	138.95253
124	0x4290f22f	72.473015
125	0x423e3a2b	47.556805
126	0x42a10ce4	80.52518
127	0x423a31cf	46.54864
128	0x40f5b195	7.6779275
129	0x424a3d45	50.559834
130	0x428ed112	71.40834
131	0x3dbaa771	0.09113968
132	0x4308a23a	136.6337
133	0x41903a22	18.028385
134	0x42091d4c	34.27861
135	0x424dc40f	51.441463
136	0x42868c7f	67.27441
137	0x42732fbc	60.796616
138	0x42ae9ed8	87.31024
139	0x42daff6a	109.498856
140	0x41ee298e	29.77029
141	0x41639383	14.223514
142	0x4188fc90	17.123322
143	0x42ca319f	101.09692
144	0x429e1ff9	79.06245
145	0x434908da	201.03458
146	0x424f11e4	51.76747
147	0x426adc65	58.71523
148	0x4360018b	224.00603
149	0x427b7809	62.86722
150	0x42a479ff	82.23827
151	0x43120a01	146.03908
152	0x4286701c	67.21896
153	0x4212420d	36.564503
154	0x41f4c5bc	30.59655
155	0x42c42a55	98.08268
156	0x43809fd6	257.24872
157	0x42df3b70	111.61609
158	0x42a8a4ec	84.32211
159	0x429f383f	79.609856
160	0x42a658b3	83.17324
161	0x4297ea76	75.95793
162	0x428591ef	66.78503
163	0x3f15534f	0.58330244
164	0x42abc884	85.89163
165	0x42091780	34.27295
166	0x42c694fa	99.29097
167	0x4328ab26	168.66855
168	0x423746cc	45.819138
169	0x424ace91	50.701725
170	0x425b316d	54.798267
171	0x41feac71	31.8342
172	0x4238faa9	46.244785
173	0x421792dc	37.893417
174	0x42b87b70	92.24109
175	0x41c82ca9	25.021807
176	0x42d69ed8	107.31024
177	0x422b847c	42.87938
178	0x432242ba	162.26065
179	0x41ef8e90	29.94461
180	0x41c30475	24.377176
181	0x40b9409c	5.789137
182	0x41d52b24	26.646065
183	0x42f74aa9	123.64582
184	0x427cf57f	63.239742
185	0x41cec878	25.847885
186	0x42a4dc41	82.43018
187	0x42a1d530	80.91638
188	0x42dd0f41	110.52979
189	0x423e470e	47.56939
190	0x43373fd9	183.2494
191	0x42463e1d	49.560658
192	0x4219a483	38.410656
193	0x4195d3bd	18.728388
194	0x4200b1de	32.1737
195	0x42175302	37.831062
196	0x42ef985d	119.797585
197	0x42bd8046	94.750534
198	0x41f37319	30.4312
199	0x42a8787a	84.235306
200	0x42541a60	53.025757
201	0x41df7fd0	27.937408
202	0x4250b59b	52.17735
203	0x4241aa75	48.416462
204	0x43181519	152.08241
205	0x4191faab	18.247396
206	0x426cda37	59.2131
207	0x4317e803	151.9063
208	0x42621628	56.521637
209	0x429e5eb2	79.18495
210	0x43d797b4	431.18518
211	0x424d9622	51.396614
212	0x4263aac3	56.91676
213	0x430dbcf2	141.73807
214	0x426a95a7	58.646145
215	0x425888d2	54.133614
216	0x42cc42d1	102.1305
217	0x427eda47	63.71316
218	0x4298d680	76.418945
219	0x41e3deb2	28.483738
220	0x425f3f47	55.811794
221	0x42a07802	80.23439
222	0x426e3623	59.552868
223	0x428d3f95	70.62418
224	0x4294d278	74.41107
225	0x42e7d514	115.91617
226	0x4295c729	74.888985
227	0x42c127f5	96.57804
228	0x41eb2eeb	29.39791
229	0x428db526	70.853806
230	0x3edc1ad8	0.4298923
231	0x42812215	64.56657
232	0x42767153	61.61067
233	0x42156a55	37.35384
234	0x4331b8f0	177.72241
235	0x42cf7c8b	103.74325
236	0x42258c3d	41.38695
237	0x42214101	40.31348
238	0x42b2ec3f	89.46142
239	0x418f6b8f	17.927519
240	0x427b4d34	62.825394
241	0x42478e5e	49.88903
242	0x429b0136	77.502365
243	0x40f416f1	7.6278005
244	0x42a17a7c	80.73923
245	0x432c79bb	172.47551
246	0x42425bf7	48.58981
247	0x4258925f	54.14294
248	0x431ff82f	159.96947
249	0x42a11a9e	80.55199
250	0x430565de	133.39792
251	0x428d15b0	70.54236
252	0x4304568f	132.33812
253	0x4342e42a	194.89127
254	0x42962119	75.064644
255	0x424b1590	50.771057

fc2.weight f4 [300, 404]
0	0xbef10ec8	-0.4708159
1	0xbf44ee15	-0.76925784
2	0xbccddfdc	-0.025131159
3	0x3e98647a	0.29764158
4	0xbd1d25a5	-0.03836598
5	0xbf56c669	-0.838965
6	0x3f2e54a8	0.68097925
7	0x3ed0cef7	0.40782902
8	0xbf22c463	-0.6358091
9	0xbeb15205	-0.34632888
10	0x3e9a0931	0.30085137
11	0xbfddd52a	-1.7330678
12	0xbf5d7e4b	-0.8652083
13	0xbdd58f97	-0.10427778
14	0xbff92878	-1.9465475
15	0x3fb54b40	1.416359
16	0xbf3901cc	-0.72268367
17	0x3c8d4c13	0.01724819
18	0x3e872b93	0.26400432
19	0xbe78ce83	-0.24297528
20	0xbfc975a6	-1.5739028
21	0x3f7d8ec7	0.99045986
22	0xbf9c54b1	-1.2213346
23	0xbf458dbb	-0.7716939
24	0xbf7a1235	-0.9768403
25	0xbe91cac5	-0.28475013
26	0xbf7ecee3	-0.99534434
27	0xbed58f03	-0.41710672
28	0xbe423a3f	-0.18967532
29	0x3e3e0949	0.1855823
30	0x3ea53a4d	0.32271042
31	0x3e1284a3	0.1430841
32	0x3e18aaf9	0.14908971
33	0xbe60d5c2	-0.21956542
34	0xbe9e89b2	-0.30964428
35	0xbfabac50	-1.3411961
36	0x3f0503d5	0.5195897
37	0x3f49f37e	0.78887165
38	0x3e081988	0.1329099
39	0xbead8a41	-0.33894542
40	0xbfa281b4	-1.2695832
41	0x3e32ee16	0.17473635
42	0xbef4be7b	-0.47801575
43	0xbeabdf46	-0.33568782
44	0xbe09754b	-0.1342365
45	0x3ef2eee0	0.47447872
46	0xbc7eb6bb	-0.015546496
47	0xbf5217af	-0.8206739
48	0x3f89ce8f	1.0766162
49	0x3f0373f1	0.5134879
50	0x3d423cdf	0.047421332
51	0x3f963e82	1.1737826
52	0x3e973e68	0.295398
53	0xbfa5098a	-1.2893536
54	0xbf118db5	-0.5685685
55	0xbf0fc762	-0.5616361
56	0x3e2d7e20	0.16942644
57	0xbf0183e8	-0.505919
58	0x3ebf044f	0.37307975
59	0x3ef886a7	0.48540232
60	0xbd513f66	-0.051085852
61	0x3e98ba0b	0.2982944
62	0x3ee51a4f	0.44746634
63	0x3f636f91	0.8884211
64	0xbeeee6d6	-0.4666049
65	0x3f0f6122	0.5600759
66	0x3dda8c3d	0.106712796
67	0x3f2383e8	0.6387315
68	0xbe2e9060	-0.17047262
69	0x3e30baea	0.17258802
70	0x3dc66abe	0.09688328
71	0x3ea85673	0.32878456
72	0xbeab6a45	-0.33479515
73	0xbf1950a7	-0.5988869
74	0x3e5af5ed	0.21382876
75	0x3ebe4b98	0.37167048
76	0x3e8ab232	0.27089077
77	0x3f0c58be	0.5482291
78	0x3fdbc800	1.717041
79	0x3ba35096	0.004983972
80	0x3f12a3fd	0.57281476
81	0x3f3a0dc7	0.7267727
82	0x3e8e8911	0.27838948
83	0xbf0f3e3c	-0.5595434
84	0x3f32782f	0.69714636
85	0x3f10bafb	0.5653531
86	0x3e2debf5	0.16984542
87	0xbeb2cf51	-0.34923795
88	0xbf1550ca	-0.583264
89	0x3e2c9a86	0.16855821
90	0x3f30f096	0.69117105
91	0xbe5438da	-0.20724812
92	0x3f4ee08d	0.8081139
93	0xbecc103b	-0.39856133
94	0x3c230cda	0.0099517945
95	0x3f0b31a2	0.5437261
96	0x3ea88a42	0.32917982
97	0xbfb45c63	-1.4090694
98	0x3faed7a2	1.3659556
99	0x3edf781e	0.4364633
100	0x3ea82ac3	0.32845125
101	0xbf959c1c	-1.1688266
102	0x3f6bf1cc	0.9216583
103	0xbeea047e	-0.45706552
104	0xbe32e819	-0.1747135
105	0x3ed7fbbf	0.42184255
106	0xbec7ddf1	-0.39036515
107	0x3fb87d76	1.4413288
108	0x3d93e99a	0.0722229
109	0xba2cd819	-0.00065934804
110	0x3f91661c	1.1359286
111	0x3f877711	1.0583211
112	0x3f253f92	0.64550126
113	0xbe910713	-0.2832571
114	0x3ebc9fba	0.36840612
115	0xbe669595	-0.22517999
116	0xbfab2221	-1.336979
117	0xbfa663d4	-1.2999215
118	0x3fa20f2b	1.2660879
119	0xbf57915c	-0.84206176
120	0xbf5bbdb4	-0.8583634
121	0x3ee411f7	0.44544956
122	0xbfa647d7	-1.2990674
123	0x3e6903ea	0.227554
124	0xbf0befa8	-0.5466256
125	0xbf0f28cc	-0.55921626
126	0xbd9044c5	-0.07044367
127	0xbf53fbb9	-0.82805973
128	0x3e9b0967	0.3028061
129	0xbd7628c9	-0.06009749
130	0x3ed6157a	0.4181326
131	0xbd441564	-0.047871962
132	0xbf7b6813	-0.9820568
133	0x3f372925	0.71547157
134	0x3ec34df1	0.38145402
135	0x3eda7448	0.4266684
136	0x3f98de0e	1.1942766
137	0xbee21785	-0.4415857
138	0xbf9e135a	-1.2349656
139	0xbe20f996	-0.1572021
140	0xbe465e13	-0.19371824
141	0xbd60c518	-0.054875463
142	0xbf26ac09	-0.65106255
143	0x3ef809e6	0.48445052
144	0x3f520323	0.82036036
145	0x3f938e34	1.1527772
146	0x3f7d234e	0.98881996
147	0xbda114e0	-0.0786531
148	0xbd9dec82	-0.07711126
149	0xbf9b5bbc	-1.213737
150	0x3f1a142a	0.6018702
151	0x3f26c965	0.65151054
152	0xbed485e9	-0.41508415
153	0xbeaf569d	-0.34245768
154	0x3e7fc61d	0.24977918
155	0xbe8f9d6d	-0.28049794
156	0xbf45d5b0	-0.77279186
157	0xbe2f31cc	-0.1710884
158	0x3fb10a82	1.3831332
159	0x3e31b86e	0.1735551
160	0x3f7c46ab	0.9854533
161	0xbf2000b1	-0.62501055
162	0x3d635385	0.055499572
163	0x3b33fa5c	0.0027462458
164	0x3e1cbf91	0.15307452
165	0xbdc80f0f	-0.09768497
166	0xbd9ec1c9	-0.07751805
167	0xbf109f28	-0.56492853
168	0xbecc5e4a	-0.39915687
169	0x3f1c9785	0.611687
170	0xbf882065	-1.0634886
171	0xbe16806e	-0.1469743
172	0xbed1a493	-0.40945873
173	0xbf072b07	-0.5280003
174	0xbefa7cb5	-0.4892327
175	0x3ea60c06	0.32431048
176	0x3f2879e0	0.65810966
177	0xbf80c191	-1.0059072
178	0xbeb6bced	-0.35691014
179	0x3f5e3e03	0.8681337
180	0xbf05d6a4	-0.5228064
181	0xbf124b59	-0.5714622
182	0x3e3689b1	0.17825963
183	0xbeecc55f	-0.46244332
184	0xbd2efd40	-0.042721987
185	0xbf1eb314	-0.61992
186	0x3ed642c0	0.418478
187	0xbd91890f	-0.0710622
188	0xbf2dc724	-0.6788199
189	0x3f581d46	0.8441967
190	0xbec3dd7e	-0.38254923
191	0xbf0f77c7	-0.5604214
192	0x3e0c23c8	0.13685524
193	0x3e25f0b5	0.16205104
194	0xbf7023fd	-0.93804914
195	0xbfb7ba4f	-1.4353732
196	0xbef931c0	-0.4867077
197	0xbea35ae9	-0.31905296
198	0xbf909370	-1.1294994
199	0x3f3ab8c4	0.7293818
200	0xbed042ce	-0.40675968
201	0xbe298b50	-0.1655705
202	0x3eadec60	0.33969402
203	0xbea7d24c	-0.3277763
204	0x3f86a96c	1.0520453
205	0x3e9a8495	0.30179277
206	0xbf6e4723	-0.93077296
207	0xbd6e55ae	-0.05818718
208	0x3af4cc9f	0.0018676704
209	0x3fd864e8	1.6905794
210	0x3f0c5b68	0.54826975
211	0x3fa71a26	1.3054855
212	0xbf3f3431	-0.7468901
213	0xbf2262aa	-0.634318
214	0xbf1c9fa3	-0.61181086
215	0xbf61ac8c	-0.8815391
216	0x3e96ee5d	0.29478732
217	0x3f8911ba	1.0708535
218	0xbfa68fce	-1.3012636
219	0xbf23b3f2	-0.6394645
220	0x3e937c7d	0.28805915
221	0xbf2e5403	-0.6809694
222	0x3d382d28	0.04496494
223	0x3ef2c643	0.47416887
224	0xbff435a5	-1.9078871
225	0x3fa7aa61	1.309887
226	0x3f3a0c69	0.72675186
227	0x3e9d0102	0.3066483
228	0x3ffa4672	1.9552748
229	0x3f134939	0.57533604
230	0x3d470e17	0.04859742
231	0x3ebb1d5e	0.36545843
232	0xbf861d68	-1.0477724
233	0x3f24c012	0.64355576
234	0x3f92348f	1.142229
235	0xbebdcdfc	-0.37071216
236	0x3d8c7d0b	0.068597876
237	0x3f69d00c	0.9133308
238	0xbfa0d3ef	-1.2564677
239	0x3cc876f2	0.02447078
240	0xbf331a52	-0.69962037
241	0xbf53a746	-0.82677114
242	0xbe9f7bda	-0.3114918
243	0x3f5f44a8	0.87214136
244	0xbe4dbbc7	-0.20091163
245	0xbf3d3434	-0.7390778
246	0xbe9e3847	-0.3090231
247	0xbe1eb945	-0.15500362
248	0x3e88d40c	0.2672428
249	0x3f656d23	0.89619654
250	0x3ec35509	0.38150814
251	0x3f901998	1.125781
252	0xbe3d4829	-0.18484558
253	0xbfab1ebb	-1.3368753
254	0xbfce87c8	-1.6135187
255	0x3e9b4444	0.3032552
